ml/attention_lstm_rolling_new/models/jpy_attention_lstm.pth (torch, 529583 bytes, 11 tensors)

lstm.weight_ih_l0 f4 [400, 12]
0.12496436 0.009273629 0.11130023 0.13316064 -0.01711657 0.05303747 0.064624086 -0.005453966
-0.036664072 0.098056145 -0.00025040554 -0.07012598 0.0059981225 -0.11099039 0.04194166 -0.11200751
-0.030101594 0.1144918 -0.027549438 -0.001153721 0.028262213 -0.035301372 -0.03490567 0.066926815
-0.09295054 -0.012779942 0.034420963 0.06651758 0.0901754 0.09713474 -0.0019879723 -0.033273354
0.017766343 0.026789404 -0.036107954 0.022528823 -0.08152457 0.11660238 0.026748044 -0.048188765
0.15619586 0.0062076314 0.02179235 -0.021260355 0.11274326 0.014032452 0.02127767 -0.0577353
-0.12864132 0.04288314 0.021604322 0.0805591 -0.04590665 0.0092285145 -0.07792505 -0.010405631
-0.005051223 -0.07791636 -0.006648647 0.04730904 -0.09212117 -0.11651417 -0.07380702 -0.1869885
-0.056997895 0.05790589 -0.0071600773 0.06305004 -0.055417914 -0.011807418 -0.036053643 -0.06432122
-0.083646424 -0.07071819 0.032222684 -2.7839787e-05 -0.019119361 -0.036182854 0.012840571 -0.036443554
0.04588234 -0.04702049 0.043340433 0.06788524 0.08258873 0.040265337 0.016675174 -0.02904173
0.10366789 0.025395289 0.07103841 -0.04082661 -0.048834596 0.08438703 0.04141324 0.051464643
0.04082818 -0.018590985 0.07336012 -0.019002452 -0.15167385 -0.011668774 -0.122157305 -0.15538572
-0.12102324 -0.06409575 -0.1388692 -0.13295479 -0.023685705 -0.0020996674 -0.070342675 -0.07135838
-0.0102817295 0.00035991307 0.010735878 0.10498375 0.00025724687 0.02037489 -0.07137523 0.031282343
-0.0794715 0.05673381 0.105729766 -0.036934674 -0.015905032 0.06878599 0.0778421 0.0016616717
0.07282425 0.0612224 0.078295834 -0.031501483 -0.07158136 0.067682594 0.1350692 -0.074466735
0.044154227 0.10190832 -0.0076253633 0.11947747 0.095896326 0.07296241 -0.0074979095 0.017681269
0.04162628 0.08787479 0.08048359 -0.09732275 0.09594218 -3.325709e-05 -0.045361225 0.028224237
0.07607721 0.08384689 0.012319434 0.019295746 -0.02518403 0.045484502 -0.1014112 0.14220768
-0.051318627 0.021057606 0.03248306 0.014264722 -0.050839614 0.075056076 -0.049829945 -0.0785764
-0.16103964 0.03622557 0.073459856 0.03624085 -0.062189646 0.053250793 0.04031774 0.084905244
-0.04223333 -0.026587961 0.05679545 -0.07528117 0.053209323 -0.017269267 -0.015963677 0.020383403
0.047001567 0.04222088 0.09336716 -0.026216544 -0.07477515 -0.04431553 0.01616065 0.07861266
-0.11786463 0.029337084 -0.027643604 -0.0036790955 0.004966263 -0.07244224 -0.03636617 0.011195013
-0.012428497 0.051487934 0.060511734 -0.028266821 -0.071719915 -0.10458918 -0.1312102 -0.08523342
-0.07174774 -0.1093498 -0.05795683 0.05475978 0.029665567 -0.009557513 -0.09371184 -0.06353451
0.17539506 0.248557 0.06774082 -0.059147086 0.055334967 0.032498054 -0.037792016 0.10303805
0.09511752 -0.014578454 0.0716196 0.015105784 -0.13444577 -0.009048228 -0.010570559 -0.030238787
0.044588983 -0.050263874 -0.036403157 -0.08805172 -0.03317525 -0.13477606 -0.13546327 -0.115614876
0.026618695 0.16200402 0.10517843 0.18160838 0.23030008 0.15719426 0.06521843 0.21343714
0.19830655 0.13018155 -0.0071784416 0.15023991 -0.09600582 -0.1225311 -0.06652934 -0.043679584
00000000: 50ed ff3d 6bf0 173c 60f1 e33d 435b 083e
00000010: 0d38 8cbc d13d 593d a259 843d 2fb7 b2bb
00000020: 112d 16bd a9d1 c83d dd48 83b9 369e 8fbd
00000030: e68b c43b ee4e e3bd 05cb 2b3d 3264 e5bd
00000040: 9e97 f6bc ad7a ea3d 5caf e1bc 7438 97ba
00000050: 2886 e73c 2c98 10bd 3ff9 0ebd ed10 893d
00000060: da5c bebd f662 51bc fffc 0c3d 5e3a 883d
00000070: e1ad b83d 94ee c63d a448 02bb a449 08bd
00000080: b98a 913c 7475 db3c efe5 13bd 5e8e b83c
00000090: 5bf6 a6bd 3bcd ee3d b71e db3c 9561 45bd
000000a0: cff1 1f3e 6369 cb3b df85 b23c 322a aebc
000000b0: f0e5 e63d 5fe8 653c 824e ae3c da7b 6cbd
000000c0: 8dba 03be 3ba6 2f3d 8cfb b03c 2bfc a43d
000000d0: 9d08 3cbd 3233 173c 2b97 9fbd 617c 2abc
000000e0: bb84 a5bb 9d92 9fbd e5dc d9bb 20c7 413d
000000f0: 06aa bcbd fb9e eebd 2328 97bd ea79 3fbe
00000100: a076 69bd ba2e 6d3d 159f eabb 6120 813d
00000110: e5fd 62bd e773 41bc fcac 13bd d8ba 83bd
00000120: d14e abbd b3d4 90bd effb 033d 7d89 e9b7
00000130: 35a0 9cbc 7934 14bd 4261 523c d645 15bd
00000140: 1fef 3b3d 8f98 40bd bd85 313d 6b07 8b3d
00000150: 4824 a93d 44ed 243d 609a 883c ece8 edbc
00000160: d54f d43d c809 d03c 967c 913d ce39 27bd
00000170: c906 48bd 1bd3 ac3d eea0 293d 97cc 523d
00000180: 733b 273d 1f4c 98bc d53d 963d 08ab 9bbc
00000190: 6450 1bbe 632e 3fbc 9c2d fabd 6f1d 1fbe
000001a0: 08db f7bd a244 83bd ba33 0ebe 4d25 08be
000001b0: 8608 c2bc 939a 09bb d20f 90bd 5824 92bd
000001c0: b374 28bc b7b2 bc39 89e5 2f3c b801 d73d
000001d0: 17df 8639 3ee9 a63c 2d2d 92bd ea21 003d
000001e0: f4c1 a2bd b661 683d d988 d83d d048 17bd
000001f0: 454b 82bc abdf 8c3d ae6b 9f3d 73cc d93a
00000200: e124 953d 57c4 7a3d 9159 a03d b307 01bd
00000210: 4099 92bd 2c9d 8a3d 954f 0a3e 0482 98bd
00000220: 10db 343d 4fb5 d03d 2fde f9bb 9bb0 f43d
00000230: 4b65 c43d 516d 953d 06b1 f5bb 4fd8 903c
00000240: 5180 2a3d b3f7 b33d 95d4 a43d 2651 c7bd
00000250: 557d c43d 877d 0bb8 b1cc 39bd 8436 e73c
00000260: 5ece 9b3d ebb7 ab3d 74d7 493c 1d12 9e3c
00000270: bd4e cebc f54d 3a3d adb0 cfbd e49e 113e
00000280: 7b33 52bd 0081 ac3c f50c 053d 95b6 693c
00000290: 333d 50bd 00b7 993d 7c1a 4cbd aaec a0bd
000002a0: 93e7 24be 4361 143d 1f72 963d 4971 143d
000002b0: 92ba 7ebd 811d 5a3d 3724 253d cde2 ad3d
000002c0: dbfc 2cbd ffce d9bc 59a2 683d 042d 9abd
000002d0: 05f2 593d 4778 8dbc 42c6 82bc 18fb a63c
000002e0: b784 403d cdef 2c3d 4837 bf3d 14c4 d6bc
000002f0: b723 99bd 3484 35bd 5763 843c adff a03d
00000300: 0363 f1bd 5354 f03c d774 e2bc fb1c 71bb
00000310: 09bc a23b 995c 94bd b1f4 14bd 4a6b 373c
00000320: e5a0 4bbc 03e5 523d 27db 773d d28f e7bc
00000330: e4e1 92bd da32 d6bd f75b 06be dc8e aebd
00000340: 7bf0 92bd caf2 dfbd 2464 6dbd cb4b 603d
00000350: 3405 f33c 1d97 1cbc feeb bfbd 621e 82bd
00000360: c39a 333e ba85 7e3e b3bb 8a3d 3744 72bd
00000370: eba6 623d ae1c 053d cdcb 1abd 9d05 d33d
00000380: f9cc c23d 78da 6ebc 4cad 923d 407e 773c
00000390: 27ac 09be 053f 14bc 2330 2dbc 55b7 f7bc
000003a0: f0a2 363d 7ee1 4dbd 7a1b 15bd 7654 b4bd
000003b0: c5e2 07bd bc02 0abe e2b6 0abe 7ec7 ecbd
000003c0: 730f da3c 62e4 253e ca67 d73d 8cf7 393e
000003d0: c9d3 6b3e 88f7 203e 3d91 853d 448f 5a3e
000003e0: df10 4b3e 504e 053e 2239 ebbb 7ed8 193e
000003f0: b39e c4bd 96f1 fabd 8940 88bd 5de9 32bd

lstm.weight_hh_l0 f4 [400, 100]
-0.007751398 -0.09453618 0.029758036 0.051794697 0.09156302 -0.06949684 -0.06697323 -0.038551044
0.060256377 -0.08357126 0.1224092 0.16696636 -0.05580601 -0.0662597 -0.004404911 0.033175424
0.03394688 0.09220801 0.19660833 0.08293716 0.026801819 0.120137945 0.094577916 0.008707542
-7.193546e-05 -0.00026509372 0.07854521 -0.011475993 0.040435366 0.021405883 0.025689015 -0.023293963
0.0758715 -0.04022262 -0.086542346 0.04307588 -0.021903181 0.08653567 -0.04901773 0.08333509
0.057287678 -0.053354923 0.050032243 -0.09581701 0.06549726 -0.018893978 0.004906157 0.13389383
-0.046704113 -0.096425846 0.085775144 0.11140216 -0.042664133 -0.013637054 0.09833338 -0.06911127
-0.053755082 0.025707856 0.11210853 -0.1497666 0.09162531 -0.008810429 0.12278398 0.035298496
0.09031494 -0.058498796 0.0688937 -0.032252993 -0.10802392 0.06679867 -0.06918827 -0.10207324
-0.019190585 -0.0919324 -0.0052049574 -0.07052813 0.050996266 -0.094958305 -0.045597903 -0.0794013
-0.0048106853 0.083473265 -0.037556265 0.0007577174 0.026163874 0.02173804 -0.10106343 0.07696923
-0.08223307 -0.09725027 0.0043183286 -0.04085365 0.11613978 0.065334156 -0.048438117 0.051248077
0.10853564 -0.07867413 0.078905955 -0.07609502 0.014342657 0.043126814 -0.051774867 0.014238326
-0.08292608 0.00086854503 -0.04552426 0.017903052 -0.07222005 -0.01349219 -0.046987645 -0.037441723
0.068084806 -0.03351415 -0.104888834 -0.0770923 -0.03430762 -0.03732219 0.023751603 -0.01026926
0.12253872 -0.10310614 0.041271262 0.08496443 0.06408824 0.09125019 0.09153372 -0.024352979
0.0251645 0.026119603 -0.010889904 0.08278309 0.057400405 -0.04481554 0.05570856 0.111716166
0.035809517 -0.035645023 -0.09049425 0.104761876 -0.0047036917 0.031735122 0.093108475 -0.003988046
-0.08719515 -0.050878737 0.00698382 -0.04450929 -0.020478636 -0.042277288 0.0014332981 0.12122509
-0.09730398 0.054400094 0.09160704 -0.0826278 -0.028314374 0.0810115 -0.040589325 -0.086344875
-0.030403513 0.030483834 0.12148622 0.039310824 -0.07895863 0.05583918 0.04014009 -0.1282437
-0.09001717 -0.073952734 0.021474548 0.015792027 -0.084787376 0.08847487 0.0208598 0.027784307
-0.117472045 -0.0015537945 0.03810949 -0.020229142 0.10150853 -0.07898277 -0.048952416 -0.011978589
0.016815422 -0.048587065 0.041237332 -0.056870393 0.028113903 -0.071922526 -0.037204016 -0.10771701
-0.049871597 0.06763943 0.034331296 -0.123716615 0.024873393 -0.06937439 0.034670655 0.083758354
0.023742102 0.0047161877 -0.04904857 -0.06116469 0.045654215 -0.04168636 0.0063164732 0.034054928
-0.013976262 0.106815845 -0.037250694 -0.06053429 -0.073572904 0.029929873 -0.020233275 -0.090609856
-0.08882961 0.011475459 0.07820694 -0.0032591417 -0.00071609474 0.03818528 -0.067371875 0.08494301
0.05207358 0.034915455 -0.011035962 -0.05766046 0.008209172 -0.021313643 0.02102954 -0.024377543
-0.064997725 0.04431534 -0.021080151 -0.091034025 0.052045256 0.16372459 0.07734517 -0.12696597
-0.046216767 -0.022289649 -0.0143187465 -0.06280096 -0.0039501493 0.06810284 0.03653485 0.03365575
0.08088479 -0.021354303 0.11428072 -0.12813267 0.11753963 -0.07758137 0.049131706 -0.070445344
00000000: 70ff fdbb 2f9c c1bd 20c7 f33c ad26 543d
00000010: 6585 bb3d 5c54 8ebd 4329 89bd b3e7 1dbd
00000020: 64cf 763d 6927 abbd adb1 fa3d 3bf9 2a3e
00000030: d894 64bd 2ab3 87bd 1257 90bb f4e2 073d
00000040: e20b 0b3d 8ed7 bc3d b253 493e f5da a93d
00000050: 7d8f db3c e20a f63d 11b2 c13d 14aa 0e3c
00000060: 0edc 96b8 47fc 8ab9 50dc a03d ce05 3cbc
00000070: 8e9f 253d 645b af3c c571 d23c fbd2 bebc
00000080: 8462 9b3d 79c0 24bd 1d3d b1bd 5570 303d
00000090: 4d6e b3bc 9d39 b13d d1c6 48bd 96ab aa3d
000000a0: 7ca6 6a3d b18a 5abd 9cee 4c3d b53b c4bd
000000b0: 6d23 863d 8bc7 9abc d4c3 a03b 771b 093e
000000c0: d04c 3fbd ea7a c5bd e1aa af3d d126 e43d
000000d0: 96c0 2ebd f36d 5fbc 0363 c93d 368a 8dbd
000000e0: 4a2e 5cbd 4899 d23c 2899 e53d 6a5c 19be
000000f0: 0da6 bb3d 9e59 10bc 2b76 fb3d 2895 103d
00000100: 0af7 b83d 6f9c 6fbd 2418 8d3d b71b 04bd
00000110: a53b ddbd becd 883d 94b2 8dbd c60b d1bd
00000120: 9335 9dbc 0e47 bcbd 598e aabb 0d71 90bd
00000130: 76e1 503d 8079 c2bd dec4 3abd 269d a2bd
00000140: f4a2 9dbb 08f4 aa3d 99d4 19bd 8ea1 463a
00000150: 9f55 d63c f913 b23c 58fa cebd 0ba2 9d3d
00000160: d069 a8bd 262b c7bd c480 8d3b 2856 27bd
00000170: b1da ed3d eacd 853d 0c67 46bd 81e9 513d
00000180: ef47 de3d e71f a1bd 7299 a13d b5d7 9bbd
00000190: 77fd 6a3c bea5 303d e211 54bd de47 693c
000001a0: 26d5 a9bd 12af 633a a577 3abd 6ca9 923c
000001b0: 1be8 93bd 590e 5dbc 1e76 40bd 7e5c 19bd
000001c0: 0c70 8b3d 2246 09bd f5cf d6bd 91e2 9dbd
000001d0: 2686 0cbd 27df 18bd b992 c23c 6640 28bc
000001e0: 95f5 fa3d 5029 d3bd 0e0c 293d d501 ae3d
000001f0: b240 833d 61e1 ba3d 0876 bb3d e67f c7bc
00000200: c825 ce3c c7f8 d53c 916b 32bc 2e8a a93d
00000210: b01c 6b3d 8090 37bd a92e 643d 72cb e43d
00000220: 00ad 123d 8400 12bd 0d55 b9bd 658d d63d
00000230: 6d21 9abb b0fc 013d a8af be3d 28ae 82bb
00000240: 5f93 b2bd 3966 50bd 87d8 e43b 604f 36bd
00000250: d0c2 a7bc f32a 2dbd 81dd bb3a dc44 f83d
00000260: 4f47 c7bd a2d2 5e3d 799c bb3d c438 a9bd
00000270: 8cf3 e7bc 5be9 a53d fe40 26bd 95d5 b0bd
00000280: ca10 f9bc 3cb9 f93c c4cd f83d 6304 213d
00000290: 10b5 a1bd a0b7 643d ef69 243d 5152 03be
000002a0: ec5a b8bd 8874 97bd 64eb af3c 485e 813c
000002b0: 01a5 adbd 5032 b53d 2ce2 aa3c ea9b e33c
000002c0: 2f95 f0bd b1a8 cbba b218 1c3d 96b7 a5bc
000002d0: b4e3 cf3d b8c1 a1bd 5482 48bd d841 44bc
000002e0: 7fc0 893c 3b03 47bd 7ae8 283d eef0 68bd
000002f0: 214f e63c 1e4c 93bd 3d63 18bd bc9a dcbd
00000300: 2946 4cbd 8b86 8a3d f99e 0c3d 235f fdbd
00000310: 49c3 cb3c 2914 8ebd d102 0e3d 8089 ab3d
00000320: cc7e c23c 408a 9a3b 27e7 48bd d387 7abd
00000330: eaff 3a3d 51bf 2abd 6bfa ce3b 2e7d 0b3d
00000340: b1fc 64bc 44c2 da3d 2f94 18bd cef2 77bd
00000350: 64ad 96bd 7e2f f53c 41c0 a5bc a991 b9bd
00000360: 4cec b5bd 9003 3c3c f62a a03d 5397 55bb
00000370: 4eb8 3bba 2b68 1c3d 44fa 89bd 9af6 ad3d
00000380: 1b4b 553d 8203 0f3d 2ed0 34bc 602d 6cbd
00000390: c37f 063c f399 aebc 2446 ac3c 6ab3 c7bc
000003a0: 871d 85bd 0184 353d 48b0 acbc 0c70 babd
000003b0: 682d 553d 6ba7 273e 2567 9e3d 5e03 02be
000003c0: cb4d 3dbd c898 b6bc 2d99 6abc ca9d 80bd
000003d0: 4170 81bb 8079 8b3d 91a5 153d 9dda 093d
000003e0: eda6 a53d 38ef aebc 030c ea3d 3635 03be
000003f0: 9eb8 f03d fbe2 9ebd 543e 493d a645 90bd

lstm.bias_ih_l0 f4 [400]
0.06440382 0.016190454 -0.07450735 0.046080533 0.041329376 0.009251415 0.07790582 0.042121984
0.046816643 -0.020869482 0.09957742 0.19719034 0.057055797 0.0684133 -0.01853691 -0.026581962
-0.0067835883 0.0100265285 0.017622687 -0.06819962 0.17296563 -0.04518482 0.05709719 0.058962256
0.05703607 0.053591732 0.05685039 0.024723692 0.03028275 -0.070977494 -0.036163516 0.081627265
0.15925676 -0.039878335 0.034802467 0.015481169 0.009847813 -0.034857444 -0.01791683 0.059454147
-0.10802191 0.09268689 0.009071933 0.12428579 0.035772383 -0.020558981 -0.033878576 0.0413706
-0.010644483 0.07421822 0.10390774 0.0047708573 0.09873985 0.013934893 0.07664981 0.07947678
-0.05623474 0.0016976596 -0.031887498 -0.027358314 0.030484851 0.04914249 0.0759407 0.109217115
-0.044223588 0.088870324 -0.031187482 0.03757791 0.018660227 -0.06581534 -0.049596958 -0.097047634
-0.058383383 -0.07181923 0.078133464 -0.045802116 0.011667946 0.02970269 -0.014866459 0.086972706
0.0003366885 0.07859488 -0.0028433478 -0.04983445 0.009461359 -0.08673927 0.036014188 -0.10197708
0.0730891 0.03503675 0.025684617 0.07025826 -0.061718542 0.060860563 0.02735994 0.07149625
-0.12843628 0.05641279 -0.10144819 0.09034323 0.027674733 0.07303327 -0.081326686 0.07040519
-0.053120513 -0.076893374 0.08849623 -0.11659239 -0.06331874 -0.090015136 -0.035720434 0.00856468
0.060513575 -0.050544456 0.0005951957 -0.11600953 -0.017555647 -0.01110916 -0.12650791 -0.030822117
-0.12114227 -0.041563824 -0.0032999564 0.041277815 0.04054224 -0.040709738 -0.08155912 -0.016970735
-0.072725676 0.0619774 0.05899212 -0.027026495 -0.06357039 0.0010872595 -0.049586557 -0.09778133
-0.07317653 -0.05610378 -0.093699925 0.0024609987 -0.043738768 -0.022814358 -0.042959988 -0.06756953
-0.00584054 0.07714857 -0.051796716 -0.04312384 -0.041030686 -0.10277773 -0.09391865 0.027810339
-0.06307794 -0.06326163 -0.019901888 0.0038135715 0.03219858 -0.07273303 0.05717775 -0.015692808
-0.08485796 -0.045279413 -0.024207069 -0.027990188 0.077626854 0.009384658 0.008099468 -0.04189951
0.061398633 0.06563906 -0.029650671 0.04324564 0.02752076 -0.028780308 0.06255365 -0.0057593756
-0.002291731 -0.003532039 -0.024875987 0.029848455 -0.06165129 -0.037907388 -0.018760517 0.07254397
-0.039091572 0.057922434 -0.0591431 -0.08325659 0.09728765 0.027320625 0.076156095 0.022376016
0.05959402 0.0069959313 -0.03684302 0.04774624 0.034450382 0.054138396 0.038863745 -0.014193043
0.05014839 -0.0217522 0.056070104 -0.05461689 -0.009714453 0.021131413 0.019954208 -0.018517306
0.09187885 0.05925128 0.018556148 -0.065952584 -0.03462602 0.04828299 0.02378344 -0.011434686
-0.08185899 0.10754496 -0.028010176 0.0010762147 -0.050235555 0.06251912 -0.01749288 -0.04332197
-0.028274873 -0.03732402 -0.011873144 -0.07610809 -0.043881908 7.072875e-06 -0.07371216 0.0014000725
-0.03798337 0.059103936 0.008467809 -0.007469639 0.031861003 -0.047534958 -0.06517419 0.020391688
0.009689892 0.04800696 0.07412381 -0.030127965 -0.10880256 0.08768912 -0.0024384814 -0.023828067
0.06395073 0.014793728 0.08076213 -0.02187003 0.07840128 0.09041279 0.037141588 -0.01609928
00000000: 26e6 833d d8a1 843c 4f97 98bd f1be 3c3d
00000010: fe48 293d 3f93 173c 168d 9f3d 1a88 2c3d
00000020: cfc2 3f3d 7af6 aabc 3fef cb3d 44ec 493e
00000030: 57b3 693d 461c 8c3d b8da 97bc 6ac2 d9bc
00000040: dd48 debb 4f46 243c 745d 903c 3eac 8bbd
00000050: e71d 313e b813 39bd bede 693d 6882 713d
00000060: a79e 693d 0183 5b3d f4db 683d 5789 ca3c
00000070: 8813 f83c a65c 91bd 3220 14bd 322c a73d
00000080: 3414 233e 7757 23bd 088d 0e3d bba4 7d3c
00000090: b958 213c aec6 0ebd 51c6 92bc 3186 733d
000000a0: 973a ddbd a0d2 bd3d 72a2 143c 8c89 fe3d
000000b0: 1086 123d 4f6b a8bc 43c4 0abd 3874 293d
000000c0: 3366 2ebc b9ff 973d 95cd d43d da54 9c3b
000000d0: 1e38 ca3d 2d4f 643c 93fa 9c3d b9c4 a23d
000000e0: 6656 66bd 0184 de3a 779c 02bd 8b1e e0bc
000000f0: 5ebb f93c a349 493d cc86 9b3d 39ad df3d
00000100: cb23 35bd a501 b63d e47c ffbc 4beb 193d
00000110: 55dd 983c 31ca 86bd 2e26 4bbd e9c0 c6bd
00000120: 6a23 6fbd f615 93bd 7004 a03d 009b 3bbd
00000130: ea2a 3f3c 0e53 f33c 7392 73bc bf1e b23d
00000140: 9185 b039 5af6 a03d 7657 3abb 351f 4cbd
00000150: d103 1b3c 5ca4 b1bd 9d83 133d 5cd9 d0bd
00000160: bdaf 953d b282 0f3d 8c68 d23c 90e3 8f3d
00000170: 95cc 7cbd ed48 793d f421 e03c a06c 923d
00000180: cd84 03be 1911 673d 12c4 cfbd df05 b93d
00000190: 1fb6 e23c 7892 953d 9b8e a6bd 9930 903d
000001a0: e594 59bd 467a 9dbd 833d b53d fec7 eebd
000001b0: 41ad 81bd db59 b8bd 974f 12bd df52 0c3c
000001c0: 15dd 773d b407 4fbd e806 1c3a 6896 edbd
000001d0: dcd0 8fbc 3203 36bc 4a8b 01be aa7e fcbc
000001e0: 7019 f8bd d43e 2abd 1544 58bb ed12 293d
000001f0: 9f0f 263d 41bf 26bd 7808 a7bd 3606 8bbc
00000200: 33f1 94bd 04dc 7d3d b9a1 713d ab66 ddbc
00000210: 3131 82bd 6082 8e3a 461b 4bbd 9441 c8bd
00000220: 94dd 95bd 14cd 65bd bfe5 bfbd b548 213b
00000230: 6c27 33bd 2de5 babc d0f6 2fbd e561 8abd
00000240: 0062 bfbb 1200 9e3d cb28 54bd a0a2 30bd
00000250: cb0f 28bd 217d d2bd 6c58 c0bd 82d2 e33c
00000260: 022f 81bd 508f 81bd 4909 a3bc 1ded 793b
00000270: a9e2 033d 0ef5 94bd 3733 6a3d 348e 80bc
00000280: 03ca adbd e876 39bd e74d c6bc ae4b e5bc
00000290: d4fa 9e3d 1cc2 193c a2b3 043c d29e 2bbd
000002a0: 227d 7b3d c66d 863d f7e5 f2bc 5722 313d
000002b0: 3873 e13c aec4 ebbc 211c 803d 25b9 bcbb
000002c0: de30 16bb c879 67bb bac8 cbbc bf84 f43c
000002d0: 1086 7cbd c744 1bbd a8af 99bc ef91 943d
000002e0: 7c1e 20bd 1340 6d3d 0940 72bd 6e82 aabd
000002f0: bf3e c73d 81cf df3c baf7 9b3d e84d b73c
00000300: dc18 743d 203e e53b b5e8 16bd 9091 433d
00000310: d81b 0d3d 39c0 5d3d 972f 1f3d f089 68bc
00000320: 6668 4d3d ab31 b2bc c4a9 653d f6b5 5fbd
00000330: 5e29 1fbc c91b ad3c 0277 a33c 9bb1 97bc
00000340: fa2a bc3d 78b1 723d 1003 983c 2612 87bd
00000350: 03d4 0dbd 62c4 453d 7dd5 c23c 8d58 3bbc
00000360: b0a5 a7bd 8840 dc3d 9975 e5bc c60f 8d3a
00000370: ccc3 4dbd 060a 803d 3a4d 8fbc 6172 31bd
00000380: b5a0 e7bc 12e1 18bd 9387 42bc 8fde 9bbd
00000390: 84bd 33bd 8953 ed36 67f6 96bd a382 b73a
000003a0: 7394 1bbd f816 723d 91bc 0a3c e0c3 f4bb
000003b0: af80 023d 04b4 42bd 0c7a 85bd 780c a73c
000003c0: 5ac2 1e3c f2a2 443d 39ce 973d ecce f6bc
000003d0: e0d3 debd 5a96 b33d eece 1fbb 1433 c3bc
000003e0: 9af8 823d 6461 723c 9e66 a53d c728 b3bc
000003f0: da90 a03d 572a b93d c721 183d a3e2 83bc

lstm.bias_hh_l0 f4 [400]
-0.057127796 0.07798658 0.049421385 0.14608024 -0.09332655 0.023212973 -0.0701102 0.057789426
0.088417105 -0.1050065 0.11655002 0.052463375 0.08970982 -0.011808292 -0.018717984 -0.08426569
0.04765959 0.05043819 0.12203207 -0.020909615 0.14811514 0.06291547 -0.05902971 0.026790034
0.082871296 -0.06190751 0.051996857 -0.059236575 0.097645216 -0.09044949 0.097210184 0.0041288873
0.15725212 -0.01953002 -0.02056014 -0.047795348 0.00093601743 0.03436373 -0.012596784 -0.017213
-0.061003238 -0.04692654 -0.04670491 0.0888365 0.07961401 0.024134804 -0.054242246 -0.09129271
-0.0055235564 0.066807054 -0.059183847 -0.09470416 0.06159601 -0.07802405 0.057852678 0.06734248
-0.030839035 0.03353836 0.074948356 0.07483006 0.078677155 -0.02288169 0.024960693 0.016013684
-0.05350522 -0.054834455 -0.022270892 0.0527149 -0.046379287 -0.0680121 -0.06765959 -0.038005974
-0.01181399 -0.071135744 0.10970819 0.083227575 0.03915441 0.0518188 0.028458051 0.06879897
-0.026016707 0.00590635 -0.03364135 0.083777376 -0.02638422 -0.09076759 -0.00090928026 0.046100464
-0.012469636 0.023252167 0.04997625 0.18224442 0.07972504 0.097019024 0.036248147 -0.060260788
-0.10205836 0.0047904304 0.028055642 0.07748785 0.045911077 -0.012587728 -0.040750332 -0.017297784
-0.08030811 -0.078115135 -0.053083643 -0.117653094 0.012332208 0.028887711 -0.043378636 0.03548154
0.00055194943 0.081960626 -0.07110507 0.03175406 -0.017329503 -0.04231399 -0.008863465 0.011397233
0.00027213464 -0.10935067 0.0063478183 0.005895151 -0.029711904 0.021973351 -0.051009305 -0.048031613
-0.04689419 0.07287927 -0.090938784 -0.09051846 0.029429097 0.010904446 0.06914929 -0.07407126
-0.031525735 0.007557485 -0.09951458 0.0054739323 -0.021984773 -0.09221 0.08725946 -0.04055302
0.0033792467 0.042184807 0.020442706 -0.09581714 0.012729116 0.0087509835 -0.005556772 0.07026497
-0.060852733 -0.024077492 -0.04321764 0.0035196878 -0.09348902 0.05078431 0.04891063 0.026354482
-0.061519444 -0.10549036 0.031195693 0.033976965 -0.010682999 -0.026666092 -0.09689001 -0.12003487
-0.0025663045 -0.063930355 0.081701525 -0.08752139 -0.10929358 -0.024115838 -0.034639984 -0.07853812
0.06023237 -0.034914773 -0.024159338 0.058362953 0.081386395 0.033822738 -0.021807052 -0.067211896
-0.1299248 0.07037256 0.0056667547 -0.049510032 0.100634135 -0.07862299 -0.08452047 0.03625504
0.040315174 -0.055325307 0.04642291 -0.09032519 -0.04389518 -0.09864174 0.079748094 -0.0111168865
0.080657825 0.07501722 0.014770662 0.08549914 -0.09874123 -0.012945535 0.068977125 -0.0155554535
0.04174769 -0.017751701 0.052979782 0.018997218 -0.0046607405 -0.035315607 0.022734063 -0.06231401
0.07777492 -0.019304756 0.037820246 0.029776976 -0.029361498 0.028125577 -0.024462875 0.053116634
-0.07589402 -0.02094199 -0.06497485 0.04423185 0.04927539 -0.074676864 -0.0066894996 -0.0771822
-0.09021937 0.04777378 0.012033348 0.035212923 0.0357323 0.0884578 0.030737072 0.020104673
0.087731175 -0.08572334 0.0038557483 -0.061505564 0.04873551 -0.087250225 -0.070825666 -0.06712931
-0.026084634 -0.054635882 -0.09643619 -0.06771922 -0.07567766 0.03506058 -0.0399857 0.06849237
00000000: d6fe 69bd 6eb7 9f3d 146e 4a3d 0f96 153e
00000010: fe21 bfbd 2229 be3c f095 8fbd 9bb4 6c3d
00000020: 0714 b53d a60d d7bd c7b1 ee3d d6e3 563d
00000030: c8b9 b73d 9177 41bc 7556 99bc 7d93 acbd
00000040: b436 433d 4798 4e3d f3eb f93d a44a abbc
00000050: 7fab 173e d3d9 803d 23c9 71bd c676 db3c
00000060: 6db8 a93d bb92 7dbd a8fa 543d 0da2 72bd
00000070: 37fa c73d 953d b9bd 2216 c73d 9e4b 873b
00000080: b306 213e 6cfd 9fbc bd6d a8bc 0ec5 43bd
00000090: 115f 753a fcc0 0c3d be62 4ebc 4702 8dbc
000000a0: 88de 79bd 0b36 40bd a64d 3fbd e9ef b53d
000000b0: ac0c a33d 5ab6 c53c 1e2d 5ebd acf7 babd
000000c0: f3fe b4bb 23d2 883d c36a 72bd 41f4 c1bd
000000d0: 194c 7c3d 13cb 9fbd eef6 6c3d dbea 893d
000000e0: 25a2 fcbc 855f 093d 867e 993d 8140 993d
000000f0: 7d21 a13d 6272 bbbc 5e7a cc3c 212f 833c
00000100: 4a28 5bbd 189a 60bd 7271 b6bc 94eb 573d
00000110: 35f8 3dbd ee49 8bbd 1c91 8abd 27ac 1bbd
00000120: 778f 41bc 9eaf 91bd b0ae e03d 3873 aa3d
00000130: 6060 203d f33f 543d dc20 e93c 79e6 8c3d
00000140: fd20 d5bc 0e8a c13b 83cb 09bd 7993 ab3d
00000150: b823 d8bc 5ce4 b9bd c45c 6eba d7d3 3c3d
00000160: 724d 4cbc 547b be3c e5b3 4c3d 489e 3a3e
00000170: e246 a33d e9b1 c63d f078 143d 04d4 76bd
00000180: f903 d1bd 0bf9 9c3b f2d4 e53c f3b1 9e3d
00000190: 410d 3c3d c23c 4ebc d2e9 26bd 15b4 8dbc
000001a0: 9478 a4bd d4fa 9fbd 3c6e 59bd 1bf4 f0bd
000001b0: 080d 4a3c eca5 ec3c ccad 31bd 1755 113d
000001c0: b3b0 103a f9da a73d 899f 91bd 8c10 023d
000001d0: 9af6 8dbc 6f51 2dbd 1138 11bc 76bb 3a3c
000001e0: 4bad 8e39 3ef3 dfbd 5c01 d03b 1c2c c13b
000001f0: 6166 f3bc 7501 b43c 22ef 50bd ccbc 44bd
00000200: 1f14 40bd ba41 953d 1d3e babd be61 b9bd
00000210: 4a15 f13c 90a8 323c 259e 8d3d acb2 97bd
00000220: 2121 01bd c7a4 f73b 4dce cbbd ac5e b33b
00000230: 6919 b4bc 99d8 bcbd 16b5 b23d ec1a 26bd
00000240: 5a76 5d3b fac9 2c3d 7677 a73c c73b c4bd
00000250: c88d 503c 4960 0f3c 9515 b6bb 15e7 8f3d
00000260: b740 79bd 293e c5bc fb04 31bd 90aa 663b
00000270: 2c77 bfbd 3503 503d 8356 483d 5be5 d73c
00000280: d0fb 7bbd 540b d8bd 1c8e ff3c 6e2b 0b3d
00000290: bf07 2fbc d972 dabc 456e c6bd d8d4 f5bd
000002a0: 722f 28bb ebed 82bd 2153 a73d 6a3e b3bd
000002b0: 50d5 dfbd 948e c5bc a8e2 0dbd 98d8 a0bd
000002c0: 38b6 763d cb02 0fbd cee9 c5bc fe0d 6f3d
000002d0: e9ad a63d b689 0a3d b4a4 b2bc 64a6 89bd
000002e0: 020b 05be 7d1f 903d 2fb0 b93b 08cb 4abd
000002f0: 4519 ce3d 1705 a1bd 1119 adbd 2a80 143d
00000300: 8621 253d ca9c 62bd f325 3e3d 6afc b8bd
00000310: 6fcb 33bd ae04 cabd f852 a33d 9a23 36bc
00000320: ee2f a53d a1a2 993d a600 723c 2c1a af3d
00000330: d838 cabd 8219 54bc e143 8d3d 4ddc 7ebc
00000340: a0ff 2a3d 046c 91bc 5401 593d 0ea0 9b3c
00000350: 20b9 98bb 19a7 10bd c93c ba3c fa3c 7fbd
00000360: 7548 9f3d 0225 9ebc 67e9 1a3d d8ee f33c
00000370: 8687 f0bc 9c67 e63c 5e66 c8bc d490 593d
00000380: 536e 9bbd 898e abbc 8911 85bd 752c 353d
00000390: fed4 493d 2ff0 98bd 9733 dbbb b411 9ebd
000003a0: efc4 b8bd 70ae 433d 8527 453c 6d3b 103d
000003b0: 085c 123d 5d29 b53d 50cc fb3c 8eb2 a43c
000003c0: 67ac b33d b88f afbd b9b0 7c3b 42ed 7bbd
000003d0: e39e 473d 3fb0 b2bd 0c0d 91bd 177b 89bd
000003e0: 71af d5bc e0c9 5fbd 5680 c5bd 60b0 8abd
000003f0: e4fc 9abd af9b 0f3d 0cc8 23bd ba45 8c3d

lstm.weight_ih_l0_reverse f4 [400, 12]
0.044986032 -0.079820454 -0.086235054 -0.0282491 0.09831658 0.021652695 -0.055096082 0.08054696
0.03851785 0.013494044 0.06956557 -0.012021055 0.118892245 -0.019214714 0.0046999683 0.020718094
-0.079081714 0.07606021 0.07747817 -0.09140227 -0.015744189 0.002032634 0.018414933 -0.06385741
-0.056214906 -0.12293795 -0.06306001 -0.14374454 -0.005177658 0.040822692 0.0843277 0.04738694
-0.051604446 0.03525582 0.044965614 -0.095795825 -0.042196877 -0.07669739 0.041234076 -0.064486645
-5.249823e-05 -0.03313893 0.026961591 0.049998384 -0.0028100307 0.030650776 -0.07408235 -0.069250345
0.0042840373 -0.06289842 0.09532395 -0.09775951 0.14661083 0.022837874 0.03401228 0.030767763
0.043656588 0.022120146 -0.0475959 -0.034736652 -0.18363667 0.016767254 0.14588071 -0.02421998
0.13323513 0.024041835 0.07570102 0.06935828 0.008392501 0.124963745 -0.01944619 0.013390153
-0.13478433 -0.023547385 -0.023084424 -0.008216006 0.00912066 -0.013460424 -0.081230335 -0.04344261
0.06900971 0.09964158 -0.01974939 0.039323352 0.16588987 0.22051315 -0.0014817537 0.022549897
0.04957691 0.09506091 0.025534745 -0.026408538 0.07059863 -0.019550577 -0.05840291 0.011643311
-0.30926993 -0.119298436 -0.012212108 -0.0884222 0.1619358 0.1134864 0.025731726 -0.02170831
0.018153116 0.09727065 -0.001000363 -0.04692568 -0.04382858 0.016725853 -0.035721466 0.06930331
-0.0009870861 0.16211051 0.06179209 0.07473642 -0.061403185 0.006423549 -0.08676388 0.04896888
0.040136863 0.0716735 0.0027901863 0.04440225 0.13219823 0.083204105 -0.003287868 0.07659264
0.08457302 0.033751052 -0.11111565 -0.006567946 -0.14369303 0.08496773 -0.061374754 -0.10191677
0.07285188 0.119548865 0.03294247 -0.0049967607 0.07799949 -0.0427745 -0.09059154 0.01739692
0.08908417 0.06292902 0.019505436 -0.042181272 0.016942518 -0.027316604 -0.030654404 -0.022957647
-0.063798204 -0.041424397 -0.05441389 -0.022409385 -0.0018622695 0.028707974 0.13238129 0.044572268
0.040799554 0.0175174 0.09138831 0.11782435 -0.03515871 0.101508655 0.004338829 0.061388947
0.08952986 -0.049562305 -0.036354885 -0.010896223 -0.04087557 -0.017033411 -0.038958665 0.0099622505
-0.045118883 -0.02600427 -0.081803866 -0.15219927 -0.080815725 0.0016252319 -0.041855555 0.023749007
0.0037346156 0.0922109 0.09301349 0.114526786 0.061463762 0.07828 -0.12170848 -0.06908452
0.07993978 0.14504476 -2.1066231e-05 0.094889775 0.00028511957 0.14492041 0.07252169 0.032655668
-0.053449687 0.008203476 0.08164055 -0.028494189 -0.093872264 0.10329916 0.095956035 0.0072286245
0.069907546 -0.019606968 -0.07676809 0.079129845 -0.08257144 0.017290995 -0.05083256 0.0035276874
0.10965625 0.094296105 0.09979967 0.043558553 -0.002700197 0.015541279 -0.054908227 0.05332191
0.004404886 -0.02583261 -0.055866208 0.040376138 -0.12834346 -0.03345708 0.03630607 -0.061240777
0.15064545 0.022009905 0.08014179 0.08478816 -0.02067651 0.029272217 0.012375211 -0.007139686
0.026020454 -0.03665296 0.03085891 -0.0577526 -0.00033207712 0.07893996 -0.088308364 -0.028025992
0.0115072755 0.041571498 0.013033982 -0.04635989 -0.052918207 -0.027517868 0.002497783 -0.045317937
00000000: 4643 383d e878 a3bd 019c b0bd a86a e7bc
00000010: 345a c93d fe60 b13c 6eac 61bd cef5 a43d
00000020: e5c4 1d3d 1f16 5d3c 6578 8e3d f6f3 44bc
00000030: c77d f33d 2d68 9dbc 3102 9a3b feb8 a93c
00000040: 98f5 a1bd 75c5 9b3d e0ac 9e3d 1d31 bbbd
00000050: f5f9 80bc f135 053b eada 963c acc7 82bd
00000060: 9a41 66bd e4c6 fbbd 9b25 81bd c531 13be
00000070: 58a9 a9bb b235 273d 00b4 ac3d cf18 423d
00000080: 2f5f 53bd 6868 103d dd2d 383d 9a30 c4bd
00000090: a2d6 2cbd 8513 9dbd 10e5 283d 9311 84bd
000000a0: 8c31 5cb8 b0bc 07bd 8ede dc3c 1bcb 4c3d
000000b0: 7e28 38bb 5617 fb3c 7db8 97bd 20d3 8dbd
000000c0: 1c61 8c3b e3d0 80bd 3439 c33d 2336 c8bd
000000d0: 2621 163e 7e16 bb3c 7650 0b3d ad0c fc3c
000000e0: 40d1 323d 4f35 b53c ebf3 42bd 0548 0ebd
000000f0: 400b 3cbe 7b5b 893c c161 153e fb68 c6bc
00000100: ca6e 083e 62f3 c43c 2309 9b3d b70b 8e3d
00000110: b380 093c feec ff3d 9e4d 9fbc 5f62 5b3c
00000120: e704 0abe 72e6 c0bc 8c1b bdbc 6d9c 06bc
00000130: d26e 153c 1c89 5cbc 175c a6bd e1f0 31bd
00000140: f654 8d3d e210 cc3d 79c9 a1bc 8611 213d
00000150: 09df 293e 33ce 613e 6737 c2ba 90ba b83c
00000160: 2811 4b3d 4baf c23d 3e2e d13c b856 d8bc
00000170: 0496 903d 8828 a0bc e437 6fbd 96c3 3e3c
00000180: a158 9ebe bd52 f4bd 4b15 48bc b316 b5bd
00000190: 80d2 253e 8f6b e83d 57cb d23c a0d5 b1bc
000001a0: d8b5 943c d635 c73d 9d1e 83ba 2435 40bd
000001b0: 9985 33bd a804 893c ac50 12bd e5ee 8d3d
000001c0: 1d61 81ba 4c00 263e b419 7d3d 680f 993d
000001d0: e881 7bbd a27c d23b 43b1 b1bd 9893 483d
000001e0: 8d66 243d 8ec9 923d 8fdb 363b 22df 353d
000001f0: f95e 073e ea66 aa3d 4679 57bb 9adc 9c3d
00000200: 9f34 ad3d 8b3e 0a3d 9a90 e3bd ed37 d7bb
00000210: 4424 13be 9003 ae3d 1864 7bbd bdb9 d0bd
00000220: 5e33 953d 09d6 f43d afee 063d debb a3bb
00000230: 32be 9f3d 5034 2fbd 0f88 b9bd fc83 8e3c
00000240: c371 b63d eee0 803d ddc9 9f3c 45c6 2cbd
00000250: 09cb 8a3c 12c7 dfbc f21e fbbc ad11 bcbc
00000260: a2a8 82bd a1ac 29bd 19e1 5ebd e393 b7bc
00000270: 6517 f4ba fc2c eb3c f68e 073e 6991 363d
00000280: 6f1d 273d a780 8f3c cb29 bb3d e54d f13d
00000290: 9402 10bd c5e3 cf3d bc2c 8e3b fa72 7b3d
000002a0: 6e5b b73d d801 4bbd dce8 14bd 1286 32bc
000002b0: 246d 27bd a789 8bbc 1f93 1fbd b538 233c
000002c0: 94ce 38bd e806 d5bc c988 a7bd 20da 1bbe
000002d0: b782 a5bd bc05 d53a bb70 2bbd 478d c23c
000002e0: 74c0 743b 11d9 bc3d db7d be3d 058d ea3d
000002f0: 6dc1 7b3d 4451 a03d 4c42 f9bd 2f7c 8dbd
00000300: 78b7 a33d 9d86 143e 63b7 b0b7 9255 c23d
00000310: 1a7c 9539 0466 143e 4086 943d f3c1 053d
00000320: 0fee 5abd df67 063c 2933 a73d a56c e9bc
00000330: 1a40 c0bd 838e d33d 9984 c43d 19de ec3b
00000340: b02b 8f3d cb9e a0bc 9738 9dbd d40e a23d
00000350: 371b a9bd d8a5 8d3c cd35 50bd c630 673b
00000360: 7593 e03d 511e c13d c563 cc3d 746a 323d
00000370: caf5 30bb d9a0 7e3c 73e7 60bd 1368 5a3d
00000380: dd56 903b e99e d3bc f7d3 64bd 7361 253d
00000390: 786c 03be 4b0a 09bd acb5 143d 9cd7 7abd
000003a0: cd42 1a3e 1e4e b43c 6121 a43d 6aa5 ad3d
000003b0: c961 a9bc 4acc ef3c 66c1 4a3c 07f4 e9bb
000003c0: d928 d53c 6a21 16bd d3cb fc3c fe8d 6cbd
000003d0: a31a aeb9 46ab a13d 04db b4bd c496 e5bc
000003e0: 0389 3c3c e046 2a3d 7c8c 553c dee3 3dbd
000003f0: c3c0 58bd 276d e1bc d8b1 233b 4d9f 39bd

lstm.weight_hh_l0_reverse f4 [400, 100]
-0.0819774 0.09637936 -0.02758307 -0.04286414 0.07606887 -0.016053827 -0.044911437 0.0906866
-0.08970616 0.046919968 0.011533804 -0.02790794 -0.05294933 -0.07007967 -0.08027098 0.10348011
0.08895713 -0.010386292 0.058171105 0.042968616 -0.10237767 -0.0065476587 -0.08189145 -0.053970695
0.020047918 -0.046222 -0.025679769 -0.08762101 0.096390665 -0.07017839 -0.0328629 -0.115136355
0.013479646 0.051216852 0.019513732 -0.084217824 -0.09877956 -0.033306014 -0.06797195 -0.08017266
-0.014382622 0.06414723 0.04140164 0.0121296095 0.0625482 0.08453871 0.06729802 0.07223851
0.01059396 -0.075993195 0.060385615 0.032158848 -0.009982956 -0.10448091 -0.03153117 -0.059890334
0.023722677 0.023497734 -0.03040398 0.07882259 0.08023405 -0.05684546 0.031966697 -0.041012138
-0.087632954 0.013283443 0.03598812 0.045340784 -0.08926815 -0.061621845 -0.07535242 0.065346286
0.064712636 -0.06326017 -0.030234313 -0.0047611925 -0.08484382 0.074929655 0.077796645 0.09505644
0.032668017 0.053181414 0.002312042 0.04523279 -0.035111595 -0.09268747 0.04042583 -0.10724753
0.03548097 -0.051434524 -0.010210789 0.07729149 0.018405236 0.020207627 -0.057217732 0.01776611
-0.01922075 -0.044250317 0.06544303 -0.052269142 0.03611851 0.059303798 -0.0038807758 0.061953545
-0.0615521 -0.036718793 -0.08046679 0.13038328 0.03454365 -0.07225655 0.06440651 -0.047824174
-0.0027213248 -0.033151537 0.04723554 0.07917211 -0.06710702 0.11614389 -0.0566432 0.08232818
-0.05849979 -0.021175353 0.08282716 -0.036139343 0.0028391185 -0.05111743 -0.041675366 0.076911196
-0.0022448632 0.08087572 0.05011724 0.04485727 0.079058364 0.016641654 -0.02696059 -0.010007327
0.027740346 -0.007680905 -0.094917886 0.092536606 0.10959959 0.122594796 0.06907229 0.06322713
0.13618931 0.003729827 -0.06362713 0.04659248 -0.044696502 -0.021894172 0.0051115337 -0.046046346
0.10045562 -0.046973687 -0.103002295 0.062986605 -0.15337408 -0.07691205 0.008901053 0.0749172
0.082691975 0.03806198 0.05332847 -0.10522591 -0.031921424 0.032957684 -0.09439276 -0.012409978
-0.07211891 0.08070948 -0.02037423 0.07006355 -0.008462972 0.057894282 0.042149596 -0.017883219
-0.021548644 -0.01907346 0.1031753 0.008127802 -0.06689664 -0.057246607 0.06346588 0.03293338
-0.03182475 0.10282201 -0.015114283 0.03978507 -0.046124008 -0.15126172 0.035216138 0.0031190438
0.07498144 -0.08923145 0.049700912 -0.086440995 0.056624286 -0.04221016 -0.113675945 0.000874434
-0.060810704 0.039684813 0.03128145 -0.03564807 -0.00825297 -0.080516905 0.049870793 -0.081351615
-0.008375544 -0.03493861 0.00600857 -0.08205644 0.0103523275 0.015104364 -0.1015312 0.059335418
0.05069685 0.058723047 0.07767419 -0.023448905 0.078977674 -0.10511307 -0.056025065 -0.03839217
-0.049887903 0.041856892 0.07083163 -0.115789495 0.036855437 -0.09725066 0.055060674 -0.095055744
-0.00066232565 0.008394342 -0.05554054 0.058118984 0.05935858 -0.011914163 0.059118733 0.012614249
-0.09109046 -0.052741487 -0.026457503 0.07523807 -0.052846313 -0.07683014 0.0662159 -0.025477065
0.088374175 0.04766282 0.08549697 0.08563488 0.03249228 -0.010289586 -0.014242379 0.051018357
00000000: c4e3 a7bd 8b62 c53d e4f5 e1bc 4f92 2fbd
00000010: ffc9 9b3d 5183 83bc 0ef5 37bd e5b9 b93d
00000020: ddb7 b7bd 272f 403d 48f8 3c3c 319f e4bc
00000030: 66e1 58bd ee85 8fbd 1d65 a4bd 61ed d33d
00000040: 282f b63d 442b 2abc d344 6e3d dcff 2f3d
00000050: 62ab d1bd be8d d6bb b4b6 a7bd 6010 5dbd
00000060: 883b a43c 4853 3dbd 615e d2bc a572 b3bd
00000070: 7868 c53d b0b9 8fbd 409b 06bd 9ccc ebbd
00000080: bcd9 5c3c c3c8 513d 43db 9f3c 657a acbd
00000090: f04c cabd e36b 08bd e134 8bbd 9031 a4bd
000000a0: 17a5 6bbc 9f5f 833d c494 293d 45bb 463c
000000b0: 4519 803d a222 ad3d 8bd3 893d c9f1 933d
000000c0: 4a92 2d3c 52a2 9bbd e856 773d ffb8 033d
000000d0: 8d8f 23bc 16fa d5bd d426 01bd 914f 75bd
000000e0: 0f56 c23c 527e c03c c411 f9bc bd6d a13d
000000f0: c051 a43d c9d6 68bd 83ef 023d 58fc 27bd
00000100: e878 b3bd cca2 593c 4768 133d 42b7 393d
00000110: 38d2 b6bd 3067 7cbd 5f52 9abd 46d4 853d
00000120: 0f88 843d 8c8e 81bd f3ad f7bc c703 9cbb
00000130: 99c2 adbd b874 993d d953 9f3d f3ac c23d
00000140: e6ce 053d c1d4 593d a185 173b 0546 393d
00000150: 2dd1 0fbd eed2 bdbd 8e95 253d 98a4 dbbd
00000160: 7e54 113d 02ad 52bd 274b 27bc 004b 9e3d
00000170: 94c6 963c 778a a53c 245d 6abd 3c8a 913c
00000180: d674 9dbc d23f 35bd ff06 863d 2b18 56bd
00000190: 01f1 133d 8ae8 723d 9d54 7ebb 00c3 7d3d
000001a0: 0e1e 7cbd 7266 16bd c6cb a4bd 3283 053e
000001b0: a47d 0d3d 3efb 93bd 8fe7 833d 48e3 43bd
000001c0: 4158 32bb e8c9 07bd 0e7a 413d fd24 a23d
000001d0: 686f 89bd d9dc ed3d b302 68bd ad9b a83d
000001e0: 7a9d 6fbd ef77 adbc 49a1 a93d d906 14bd
000001f0: 8110 3a3b 8360 51bd cab3 2abd 9e83 9d3d
00000200: 8e1e 13bb 2ba2 a53d bc47 4d3d 42bc 373d
00000210: 5ae9 a13d 1454 883c 75dc dcbc c6f5 23bc
00000220: b93f e33c 1ab0 fbbb 4f64 c2bd d583 bd3d
00000230: c075 e03d fb12 fb3d c675 8d3d 3a7d 813d
00000240: 3675 0b3e 1d70 743b f14e 82bd c2d7 3e3d
00000250: ae13 37bd 685b b3bc a77e a73b 189b 3cbd
00000260: adbb cd3d 7b67 40bd def2 d2bd 1fff 803d
00000270: 180e 1dbe 1184 9dbd b9d5 113c 306e 993d
00000280: 695a a93d e1e6 1b3d f46e 5a3d af80 d7bd
00000290: 0ac0 02bd a3fe 063d fe50 c1bd 3853 4bbc
000002a0: 14b3 93bd 034b a53d dbe7 a6bc 7a7d 8f3d
000002b0: 47a8 0abc 8e22 6d3d 0ea5 2c3d d47f 92bc
000002c0: c886 b0bc f23f 9cbc 924d d33d 792a 053c
000002d0: 1b01 89bd 6b7b 6abd 66fa 813d 27e5 063d
000002e0: ab5a 02bd 5994 d23d e6a1 77bc abf5 223d
000002f0: 87ec 3cbd 5ae4 1abe cc3e 103d df68 4c3b
00000300: df8f 993d fabe b6bd 2f93 4b3d fa07 b1bd
00000310: deee 673d 90e4 2cbd efce e8bd 463a 653a
00000320: a514 79bd 8b8c 223d fa20 003d b603 12bd
00000330: 7737 07bc 0ce6 a4bd 5145 4c3d ad9b a6bd
00000340: 9439 09bc ca1b 0fbd 8ae3 c43b 350d a8bd
00000350: cf9c 293c 4b78 773c 97ef cfbd b209 733d
00000360: 80a7 4f3d 9487 703d a513 9f3d eb17 c0bc
00000370: 0cbf a13d 8545 d7bd 8a7a 65bd 1c41 1dbd
00000380: 4257 4cbd 2272 2b3d 2c10 913d 0b23 edbd
00000390: baf5 163d 5b2b c7bd 4d87 613d 96ac c2bd
000003a0: ec9f 2dba 6c88 093c 7a7e 63bd 2c0e 6e3d
000003b0: fb21 733d 9f33 43bc 7c26 723d ffab 4e3c
000003c0: a38d babd 7507 58bd 68bd d8bc 6b16 9a3d
000003d0: 6075 58bd 1f59 9dbd 349c 873d 47b5 d0bc
000003e0: 85fd b43d 173a 433d 0919 af3d 5761 af3d
000003f0: a016 053d a795 28bc de58 69bc a0f8 503d

lstm.bias_ih_l0_reverse f4 [400]
0.04686177 -0.01653846 -0.07484507 -0.020731626 0.016448626 0.0045580016 -0.049652576 0.07987876
-0.0277179 0.020988816 -0.00477139 -0.06707649 -0.0627811 0.055203855 -0.14412971 0.045118507
0.05866684 0.04611761 0.022175709 -0.0645272 -0.059644897 0.140647 0.037348676 0.0626046
-0.07896803 -0.008493161 -0.07502003 -0.035986856 0.069182 0.042529467 -0.114301905 0.015279584
-0.063310616 -0.047821254 0.08444124 0.05818986 -0.09217114 0.121067904 -0.08059678 -0.006156049
-0.070146486 -0.020153727 0.067930534 -0.06314498 -0.07193885 -0.06909998 -0.06559694 -0.011662641
-0.07029746 -0.078878455 -0.0057725473 0.011726437 -0.037292756 -0.026046082 -0.013623518 -0.07137336
-0.07237484 0.011018024 0.06858121 -0.09589631 -0.05423193 0.053491883 -0.017646637 0.032442454
0.06610758 0.071418606 0.08744018 -0.044959195 -0.045697585 0.0714106 0.044744123 0.022591606
-0.047254022 0.05628197 -0.05679633 0.14613481 -0.009749249 0.11696617 0.098262645 0.08443312
-0.06653324 -0.055438828 0.034221936 -0.042533003 0.068238944 0.05367623 -0.04579108 0.040808994
0.054771848 0.051451847 0.03766796 -0.038474478 0.004936691 -0.019281937 -0.02945833 -0.039916445
0.06668112 -0.074550316 0.016195972 0.09958532 0.020594217 0.063886985 -0.069792785 0.051142454
0.041479442 0.12487502 -0.08842033 0.062397238 -0.026009776 0.06814302 0.082183264 -0.0400902
0.0652137 -0.015469092 -0.015961573 -0.0134979645 -0.025641557 -0.056827977 0.01698849 -0.04083063
0.04556407 0.031167937 0.054144263 0.09904975 -0.0060205935 -0.063183546 0.060129933 0.09312755
0.0007911684 0.011500369 0.036057394 0.104682244 0.031968225 0.069805145 0.033213034 0.037272543
-0.06770698 0.08574112 -0.060431898 0.090520196 0.046035282 -0.04076059 -0.061197486 0.08799254
-0.03406299 -0.055513445 -0.0019609018 0.02416693 -0.06842287 0.055945627 -0.029952552 0.032711014
-0.04661029 0.06310814 -0.011041807 -0.048480373 0.030615976 0.014573278 0.07165697 0.038166557
0.028231345 -0.0599312 0.045476455 0.018851116 0.011212334 0.09239319 0.0379 -0.030614119
0.089942515 -0.09203357 0.055211715 -0.013751855 -0.03904013 -0.029333914 -0.05147856 0.019226022
-0.0937478 -0.019485164 -0.03711847 0.014694925 0.055048298 0.07863564 0.005296763 0.02971899
0.07735485 -0.06590557 0.022487232 0.06892153 0.042443175 0.012472545 0.010579673 0.120578
0.11527474 -0.0068912013 0.042137478 -0.011561829 -0.0032427863 0.06167105 -0.08236004 -0.0019048364
0.05982169 -0.05549501 -0.06527307 -0.013252288 0.011964605 -0.0018255054 0.0200508 -0.06291822
0.08360765 -0.015795443 -0.08772478 -0.085994355 0.02255989 -0.07286339 0.05709379 -0.019136347
-0.015599894 0.063532665 -0.05695481 0.04280817 -0.06872393 0.022524692 -0.012801838 -0.09278086
-0.07271661 0.08175454 0.03318558 0.060700476 0.03312263 0.1011914 0.015217747 0.07094297
-0.006743864 -0.02431083 -0.059730463 -0.0761377 0.09391359 -0.014364902 0.0041778935 -0.014938278
-0.05917436 0.08451952 0.044750523 0.017723512 0.052680712 0.057921357 0.0845353 -0.04886765
0.012191317 -0.04214529 -0.014099303 0.018412067 0.0057829395 -0.011893064 0.07077561 0.07842075
00000000: 21f2 3f3d aa7b 87bc 5f48 99bd 5fd5 a9bc
00000010: 45bf 863c 4a5b 953b 8060 4bbd 7a97 a33d
00000020: a610 e3bc bdf0 ab3c 5259 9cbb 665f 89bd
00000030: 6193 80bd 701d 623d bd96 13be 2fce 383d
00000040: a44c 703d d2e5 3c3d d5a9 b53c d626 84bd
00000050: 354e 74bd c405 103e edfa 183d d736 803d
00000060: feb9 a1bd e626 0bbc 1aa4 99bd f466 13bd
00000070: 4baf 8d3d 6133 2e3d 1e17 eabd 3857 7a3c
00000080: ffa8 81bd 38e0 43bd 87ef ac3d 7e58 6e3d
00000090: 39c4 bcbd 73f2 f73d ed0f a5bd afb8 c9bb
000000a0: f6a8 8fbd 6e19 a5bc 2a1f 8b3d 2852 81bd
000000b0: ad54 93bd 4a84 8dbd b057 86bd a914 3fbc
000000c0: 1df8 8fbd 078b a1bd a327 bdbb 3e20 403c
000000d0: 4ac0 18bd 985e d5bc 2d35 5fbc 322c 92bd
000000e0: 4339 94bd f184 343c 4e74 8c3d 4965 c4bd
000000f0: 4d22 5ebd 4e1a 5b3d ae8f 90bc 61e2 043d
00000100: 6963 873d eb43 923d d613 b33d 2227 38bd
00000110: 642d 3bbd b83f 923d 9d45 373d 0812 b93c
00000120: 6f8d 41bd ec87 663d 45a3 68bd 5da4 153e
00000130: 50bb 1fbc f68b ef3d ed3d c93d 46eb ac3d
00000140: 9442 88bd d313 63bd 4d2c 0c3d 1637 2ebd
00000150: dcc0 8b3d 9bdb 5b3d 6d8f 3bbd 5527 273d
00000160: 7258 603d 2cbf 523d b849 1a3d 6a97 1dbd
00000170: f7c3 a13b 27f5 9dbc 9852 f1bc 6d7f 23bd
00000180: 1c90 883d d6ad 98bd 6aad 843c 63f3 cb3d
00000190: 34b5 a83c 2ed7 823d 85ef 8ebd c07a 513d
000001a0: 59e6 293d 79be ff3d b815 b5bd 3f94 7f3d
000001b0: 7412 d5bc 918e 8b3d b34f a83d 9f35 24bd
000001c0: c38e 853d 1372 7dbc d8c1 82bc 9126 5dbc
000001d0: 3e0e d2bc 74c4 68bd 722b 8b3c 053e 27bd
000001e0: 64a1 3a3d e753 ff3c 60c6 5d3d 98da ca3d
000001f0: 6648 c5bb 6066 81bd ce4a 763d a8b9 be3d
00000200: 6a66 4f3a 0b6c 3c3c ebb0 133d a563 d63d
00000210: 1df1 023d 00f6 8e3d 640a 083d 18ab 183d
00000220: f5a9 8abd 0a99 af3d 7087 77bd a762 b93d
00000230: 7e8f 3c3d 94f4 26bd 37aa 7abd 6f35 b43d
00000240: a285 0bbd 1162 63bd 7982 00bb baf9 c53c
00000250: 4a21 8cbd 3e27 653d 0e5f f5bc fcfb 053d
00000260: 6eea 3ebd d73e 813d b2e8 34bc 5b93 46bd
00000270: 5bce fa3c c2c4 6e3c e4c0 923d 8954 1c3d
00000280: 6c45 e73c 6b7a 75bd 8545 3a3d a86d 9a3c
00000290: f0b3 373c a438 bd3d 083d 1b3d 76ca fabc
000002a0: c833 b83d 197c bcbd ae25 623d 764f 61bc
000002b0: 8be8 1fbd ad4d f0bc 2fdb 52bd e47f 9d3c
000002c0: d9fe bfbd 5a9f 9fbc 8909 18bd fcc2 703c
000002d0: 537a 613d b90b a13d 7890 ad3b 3d75 f33c
000002e0: 386c 9e3d 80f9 86bd 2537 b83c bb26 8d3d
000002f0: e5d8 2d3d a559 4c3c 5d56 2d3c 99f1 f63d
00000300: 2a15 ec3d 96cf e1bb 5998 2c3d d36d 3dbc
00000310: ed84 54bb c89a 7c3d 61ac a8bd b4ab f9ba
00000320: 9707 753d bc4e 63bd e3ad 85bd 2020 59bc
00000330: 3107 443c cc45 efba 9341 a43c 45db 80bd
00000340: 7d3a ab3d 7265 81bc 0da9 b3bd cf1d b0bd
00000350: 85cf b83c 6739 95bd 2edb 693d d4c3 9cbc
00000360: b396 7fbc 6a1d 823d 7249 69bd 9f57 2f3d
00000370: 22bf 8cbd b485 b83c cdbe 51bc e403 bebd
00000380: 72ec 94bd ed6e a73d 9aed 073d 10a1 783d
00000390: 98ab 073d 703d cf3d db53 793c 8c4a 913d
000003a0: a2fb dcbb 8127 c7bc eea7 74bd 15ee 9bbd
000003b0: c555 c03d c45a 6bbc b6e6 883b aebf 74bc
000003c0: d060 72bd 9218 ad3d 534c 373d e630 913c
000003d0: bbc7 573d f23e 6d3d d820 ad3d 7229 48bd
000003e0: 17be 473c 8aa0 2cbd c300 67bc e7d4 963c
000003f0: d07e bd3b 20db 42bc cef2 903d 0f9b a03d
