backend/ml/lstm_attention/models/cny_attention_lstm.pth (torch, 529583 bytes, 11 tensors)

lstm.weight_ih_l0 f4 [400, 12]
00000000: 17dc 04be 2b72 38bc 0f31 b0bd 9ecb 21be
00000010: ecc4 243b 1b34 f1bc 2c77 37bc 00d6 03bd
00000020: 7fea 3fbe eccf d2bd c5d3 11be 2646 88bb
00000030: 0c62 cabd ab7f c43d bb3b 0ebc c70d c43b
00000040: f5cb 7cbd 1766 d5bc 679f bbbd fdf8 01be
00000050: 7a57 2ebd ec57 16bd 29f9 15be d2a6 15be
00000060: 1fb4 adbd 846a bf3d 44d7 263d bc45 433d
00000070: 7c72 ab3d 6c83 fa3d 615c 95bc f80f 70bc
00000080: a2cd cabd 56a4 a5bd 8f88 d6bd 42d7 8c3c
00000090: 2f31 e1bd 20c2 c63c 8b43 2dbd 6c17 7d3d
000000a0: 5cda 6b3d a9db b23d c996 7ebd 242b 0f3d
000000b0: 0fa9 62bc 6496 e2bd f221 cbbb 4936 95bd
000000c0: f5e6 5bbd 0618 1dbd ce77 a2bd 96e8 3b3d
000000d0: 1e06 cbbd d6d4 c6bd ff01 043d e0b0 723d
000000e0: 6e50 ae3d 2e15 d6bd 7f3e 993d 67d6 623d
000000f0: 5009 2fbe a1db dc3d 184d 7dbd e6b7 433e
00000100: ec36 843d 8212 1d3d 67bd ef3d 33c9 643d
00000110: a1de 90bc affa 893d 606a 6a3b 22ae 94bc
00000120: 2fe0 663c e5bd c73c ec71 f0bd fb36 013d
00000130: 8e37 cdbd 43be bc3d 7292 49bd 2631 3cbd
00000140: 2253 e63c a168 083d ea96 393d fa22 93bd
00000150: c17e 81bd 4936 98bd 06c3 87bd bf9d d33d
00000160: afb4 d13d 8663 903d 51f1 d63d f2c1 913d
00000170: b5de 7fbc a83c fcbb e511 dcbd 08a9 83bb
00000180: f8d3 ecbc e607 02bd ffe7 afbd e543 09bd
00000190: b88b f8bd bb33 b7bd 9cef 863d 8a9f bbbd
000001a0: 64c8 cfbd 6d8b 023d d9ba a2bb 5a22 13bd
000001b0: 482c f03c 771e a9bd 8b79 21bd a93b 033d
000001c0: 0bbd 0c3e f72f de3c c8b4 b63d b0f3 9bbd
000001d0: 6e03 3f3d fd16 b6bd eb58 d2bd 1033 a7bd
000001e0: 6ed7 9b3c 15da 503d 1108 4bbb 8d08 9d3d
000001f0: e776 bf3d 09ae d3bc bd72 63bd 6e8c df3c
00000200: 2f64 b93c 737f ccbd 3911 12bd cf57 99bc
00000210: 6ff6 af3c 2845 9abd bfa0 5abd ac2e e0bd
00000220: 7bc3 3ebd 20b7 17be 39a3 83bd ee88 33bd
00000230: 25f5 a5bd 1a73 e9bd e9ed fcbd 88a5 433b
00000240: 6da2 34be 18cd acbd 33ee d5bd e80d e7bc
00000250: c203 1e3a 4c16 35bd 608d b0bd a391 f1bd
00000260: 0515 013d 5d65 e5bd 8c04 b7bd 9f4a c8bc
00000270: 9d02 0a3c a3af a5bd 8cd1 a53d 7e42 e53c
00000280: f354 873d cdde cf3d 41a3 1ebd 634c 04bd
00000290: bd45 f8bc eaee b83c 4d3c 653b 6f5d 483d
000002a0: d8a6 0cbd 6eda 2bbd 4b50 32bd e353 ec3d
000002b0: b375 6e3d 2dce cc3d 6874 263d afec 333e
000002c0: 28d0 023e 56b8 8f3d 60ee 4f3d 027e 0dbd
000002d0: c1cb 7e3d 039c c6bd 2e22 b03d d996 8dbd
000002e0: ed88 80bc cf84 ad3c 689b 0fbc 5608 c9bd
000002f0: efa8 aabd 183b 04be 8d83 b5bd b297 0ebd
00000300: ec90 803c 05d5 c23d 326f dd3c 736d 60bd
00000310: 1929 27bd 998b 81bd 577c 44bd e3a1 a63d
00000320: 7a8f dbbd 7fe3 9d3b 2552 dcbd 2c67 4cbc
00000330: 80ca df3c 6cb8 b4bd 28f9 c438 ed0f ba3d
00000340: 25bf bebd 430b 92bd dc67 a1bd cb16 5dbc
00000350: be47 2e3d 1003 4fbd 386c acbd 6fc3 983d
00000360: 548c 63bc d7cc ad3d 3c1f 24bd ed4d 773d
00000370: d285 9e3c 9f4b 033e 32d2 ae3d da84 4abd
00000380: 96f9 79bd edd0 9abd 5584 bc3c fce2 a1bd
00000390: d008 043e 8bd2 41bd c61a c73d 145e adbd
000003a0: ddfa 7abd 6394 89bd 609f cd3d 9c4c acbd
000003b0: 4b1b be3d 3902 b53c 027f a83d d89e 953d
000003c0: 6d61 ac3d ccd3 83bd a86a ba3d ce7d 983d
000003d0: bcfc 80bd 556a 013d 4505 8bbd e451 e1bc
000003e0: 900f 52bd 4ba6 06bd 9c9e 2f3d 1143 343c
000003f0: 28d7 ef3a 355e bb3d e273 45bd be62 c93d
-0.12974583 -0.0112576885 -0.08603107 -0.1580033 0.0025141789 -0.029443791 -0.011197846 -0.03218651
-0.18741797 -0.10293564 -0.1424094 -0.004158753 -0.09881982 0.09594663 -0.008681233 0.0059830877
-0.061717946 -0.026049657 -0.09161263 -0.12692638 -0.042563893 -0.036704943 -0.14645828 -0.14614418
-0.08481621 0.09346488 0.040732637 0.047673926 0.083714455 0.12232098 -0.018232526 -0.014652245
-0.099025026 -0.08087985 -0.10475265 0.017192487 -0.10995709 0.024262488 -0.042300742 0.061789915
0.05758129 0.08733303 -0.06215552 0.03495325 -0.013834252 -0.11063841 -0.006199115 -0.07285745
-0.053687055 -0.03835299 -0.07933007 0.045876108 -0.09913276 -0.09708564 0.032228466 0.059250712
0.085114345 -0.104532585 0.07482623 0.05538025 -0.17093396 0.107840784 -0.0618411 0.1911312
0.06455788 0.03834773 0.117060475 0.05585594 -0.017684283 0.06737267 0.003576897 -0.01814944
0.0140915355 0.024382541 -0.11740479 0.031546574 -0.10020362 0.09215977 -0.049211927 -0.04594531
0.028115813 0.033302907 0.04530994 -0.071844056 -0.063230045 -0.07432229 -0.06628995 0.10332822
0.10239541 0.070502326 0.10495246 0.0711707 -0.015617062 -0.0076976605 -0.107456006 -0.004017953
-0.028909668 -0.031745814 -0.085891716 -0.033512015 -0.12136024 -0.08945414 0.065886706 -0.09161289
-0.10145643 0.031871248 -0.0049661216 -0.035921432 0.02931799 -0.08257764 -0.039422553 0.03203932
0.13743989 0.02712248 0.089212 -0.07614839 0.04663413 -0.088911034 -0.10270866 -0.08164036
0.019023623 0.05098923 -0.003098015 0.076676466 0.09348851 -0.025839822 -0.055529345 0.027288642
0.02263078 -0.099852465 -0.035660956 -0.018718628 0.021479813 -0.07532722 -0.053375956 -0.10946402
-0.046573143 -0.1481595 -0.064276166 -0.04383176 -0.08103398 -0.11398907 -0.12350065 0.0029853303
-0.17640086 -0.08437556 -0.104458235 -0.028204873 0.00060277816 -0.044210717 -0.08620715 -0.11795356
0.031514186 -0.11200974 -0.08936414 -0.024449645 0.008423475 -0.08090141 0.080966085 0.027985808
0.06608 0.10149918 -0.03872991 -0.03229941 -0.030306691 0.02257486 0.003497857 0.04891723
-0.034338802 -0.041956358 -0.043533605 0.115394376 0.058217715 0.100002624 0.040638357 0.17570756
0.12774718 0.07017581 0.05076444 -0.034544 0.062206034 -0.096977256 0.08600269 -0.069135375
-0.015690291 0.021181492 -0.008765079 -0.09816043 -0.08333003 -0.12913167 -0.08862982 -0.034812637
0.015694104 0.095132865 0.027030561 -0.05479188 -0.04081068 -0.06325454 -0.047970142 0.08136346
-0.10720725 0.0048183794 -0.10757855 -0.01247577 0.02731824 -0.08824238 9.392417e-05 0.09085069
-0.09313802 -0.07131054 -0.07881138 -0.013494204 0.042548887 -0.05054003 -0.084190786 0.07459151
-0.013888437 0.08486336 -0.04006885 0.06037705 0.01935092 0.12821816 0.08536185 -0.049443103
-0.06102904 -0.07559381 0.02301232 -0.07904622 0.12893987 -0.04731993 0.097219035 -0.084652096
-0.061274398 -0.06717756 0.10040164 -0.084130496 0.092825495 0.022095786 0.0822735 0.07305688
0.0841702 -0.064368814 0.09102374 0.0744587 -0.06298205 0.031595547 -0.067881145 -0.027504869
-0.051284373 -0.032873433 0.04287587 0.011002318 0.0018298374 0.09148828 -0.048206218 0.09833287

lstm.weight_hh_l0 f4 [400, 100]
00000000: ae22 bfbd a929 a63c 71cb e4bc 3668 28bd
00000010: fda8 2dbd 29b9 85bd cafb ddbd cfe3 4e3c
00000020: d029 95bd 2339 febd 6b33 8aba 6683 a7bc
00000030: 11c7 96bd ba9f fd3d 4839 86bd aa7d 9dbd
00000040: 72a4 32bd de18 ddbd e2c5 d8bc e77a 0f3d
00000050: 0e45 fc3d f082 21be b505 c73d 6cfe 25bd
00000060: d8c9 40be f219 29be 4617 fc3c 0ff7 913d
00000070: aef6 b2bc b560 93bd a224 243e 484b 33be
00000080: 3218 af3c 4be3 19bc df2d e83d 583c 2ebc
00000090: 95d1 38bb 0543 b7bc 742b 38be c743 db3c
000000a0: 1067 743d 9008 9abc 169d 1c3d 31ca 0a3d
000000b0: d2c2 8d3d 849f be3d 7dfc 81bc c942 b53d
000000c0: eb5b 8cbd c4aa 65bd 478b af3c f53b 14be
000000d0: 68c6 9b3d 3d89 04be 4847 dcbc 6ab7 083e
000000e0: e797 acbd 696e e83c a259 1ebe 861d 1d3e
000000f0: 6fc1 1b3e 3860 ba3d 54d0 3b3d 155b 1abd
00000100: 95f3 0a3e 16d7 f13c 58e4 0f3c eba9 1c3e
00000110: f917 45be b36a 03be 8846 acba 0fed fd3d
00000120: 8655 2bbe 0a6e cf3d 77f7 f0bd 8b89 2ebc
00000130: 8813 113e 0fb8 d6bb b726 aa3d 6cb3 5bbd
00000140: ecfb d33b 06ed 3d3e dbde b43c f19b 213e
00000150: c440 c2bc 7274 583d 8e2e 1b3e 8565 04be
00000160: e438 66bd 5f4c 04bd 5656 273c 015a 25be
00000170: 31b1 373e 15fe 06bc 1ea9 e13d 3367 c4bd
00000180: 19f7 ae3a 23ee 1bbe 91cd 0f3d 4a6f 673d
00000190: ddc7 f93d c0a6 d83d 908b 40be f7ff fe3c
000001a0: d63d bd3d db8b 18bd 916e b5bd eeba e1bd
000001b0: 8a44 873d 1edd e2bc c3d6 afbd 7b62 65bd
000001c0: 5de6 5fbc 8ebc d13c 9c32 4bbe ac47 32bd
000001d0: 6bdf b9bd f399 febd f052 253d fb2f f63d
000001e0: 21f3 0a3e 5569 0bbe ab6b a1bb 7205 cbbd
000001f0: 79c4 b4ba aab4 7fbd f816 b13d a33e a13d
00000200: f8b0 3fbc d45f e33d 4867 103d 3343 90bd
00000210: 16b1 66bd 4da7 943d 66c7 a03d 07b5 60bc
00000220: b903 bfbc 1579 f1bc 6f78 213d 82c1 82bd
00000230: cae2 59bd 4e49 973c 9ef4 ba3d 0710 6dbb
00000240: 8058 9f3d f7b2 dd3d 64d5 03bd 5365 03bc
00000250: 3317 7c3d c33a ed3a 8539 c0bb 5b18 b2bd
00000260: 83ca 413e 71b2 0dbe 9108 aebc 6215 13bd
00000270: a995 83be d9d2 c6bc fb87 cb3c 0b9c d93d
00000280: 47c8 6d3d 6688 42bd f989 143e 610e 143d
00000290: f477 c53d 3744 853d b432 d8bd eebf 143e
000002a0: 8990 98bc f3c4 51bd 7024 393d f9b8 003e
000002b0: d4a9 09be e57a d43d 594f 1bbe 844e 8a3a
000002c0: dd81 3c3e 9d86 1a3e c658 f13d 0f4e 2a3c
000002d0: 22c0 b43d fa17 683d e5fe 803b 7e76 1f3e
000002e0: a41e 6b3c b438 433d 4ba1 9c3d a04c 40bd
000002f0: 7dec 3abe 2434 713d 90be 0abe cfc6 7cbd
00000300: 7538 be3d b0b2 f73d 4d7f 3ebd 9ce4 15be
00000310: 9417 16bd 5c02 c8bc 1693 193e 9355 06bd
00000320: 6383 f13d 1a02 4a3d b9af a3bd 0bda ef3c
00000330: 65ff 803d 0ba7 6d3c e29d fbbd 95d6 0dbd
00000340: 879a 0bbd 787c ffbd f440 313c 8c98 8cbb
00000350: 966d 153c b01b b63d 4dca 98bd e68a e33c
00000360: 321e 62bc e49d b8bd 3c44 cbbd 54fc 033e
00000370: 6e27 33bd 9f91 03be e89d 853d 27c3 9bbc
00000380: 6f32 ebbc 4454 a1bc 857c 35bd e35b 51bc
00000390: 320d 24bb 8339 cabd db28 393c c360 403d
000003a0: 2628 4ebd 26b1 8cbc fdbd be3d edaf edbd
000003b0: 374d 66bd 73cd 17bd d907 d2bd 0ef8 90bc
000003c0: 7620 5b3d 2347 e6bc 6495 0a3e 07f7 4c3d
000003d0: b6f7 07bd e901 493d e219 a7bd 18c0 dd3d
000003e0: ce95 77bd 5ff4 693c 97c8 603c 9801 5a3d
000003f0: bebe 993d f83b 1ebe b286 82bc 9ff3 73bb
-0.093327865 0.020283537 -0.02792904 -0.04111501 -0.042397488 -0.06529457 -0.108390406 0.012627556
-0.07283366 -0.12413242 -0.0010543888 -0.020448398 -0.07362188 0.12383981 -0.06553894 -0.07689984
-0.04361386 -0.10795759 -0.026461545 0.03502932 0.12317859 -0.15772605 0.097178854 -0.04052584
-0.18826997 -0.16513804 0.030772816 0.07127201 -0.021846142 -0.0719618 0.160296 -0.17509186
0.021373842 -0.00939257 0.11336874 -0.010634504 -0.0028201093 -0.022370825 -0.17985326 0.026765717
0.0596686 -0.018802911 0.038235746 0.03388423 0.06921925 0.09307769 -0.015867466 0.08850629
-0.068534695 -0.056071058 0.021428717 -0.14475997 0.07606202 -0.12942977 -0.026889458 0.13351217
-0.084274106 0.02837296 -0.1546388 0.15343294 0.15210508 0.091003835 0.045852974 -0.03768452
0.13569482 0.029521506 0.008782469 0.15299194 -0.19247426 -0.12833671 -0.0013143579 0.12398731
-0.16731843 0.1012841 -0.1176595 -0.01065291 0.14167607 -0.006552703 0.083081655 -0.053637907
0.0064692404 0.18547449 0.022078922 0.15782143 -0.023712523 0.052845426 0.15154478 -0.12929352
-0.0562066 -0.032299396 0.010213455 -0.16147615 0.17938687 -0.008239289 0.11018585 -0.09589996
0.0013348787 -0.1522756 0.035108153 0.056502618 0.12196324 0.1057868 -0.18803239 0.031127913
0.0924031 -0.03724275 -0.088589795 -0.11021982 0.0660487 -0.027693328 -0.085858844 -0.05600212
-0.013665763 0.025602605 -0.19843525 -0.043525383 -0.09075817 -0.12431707 0.0403623 0.1202087
0.13569309 -0.136144 -0.004926165 -0.09913148 -0.0013791464 -0.062428154 0.08646959 0.07873275
-0.0116999075 0.11102262 0.035254747 -0.07044067 -0.056321226 0.072584726 0.07850532 -0.013715035
-0.023317205 -0.029476682 0.039421495 -0.06384565 -0.0531948 0.018467572 0.09128688 -0.0036172883
0.07780552 0.108251505 -0.032185927 -0.008019763 0.061545562 0.0018099177 -0.005866232 -0.08696052
0.18924908 -0.13837601 -0.02124432 -0.035909064 -0.2570012 -0.024270462 0.024845114 0.10625466
0.058052327 -0.04749336 0.14505757 0.036146525 0.0964202 0.065071516 -0.10556546 0.1452634
-0.018623607 -0.051213216 0.045200765 0.12570561 -0.1344369 0.10375003 -0.15166987 0.0010551964
0.18408914 0.15090413 0.1178451 0.010394587 0.08825709 0.05666349 0.003936636 0.15572545
0.014350567 0.0476615 0.07647952 -0.046948075 -0.18254276 0.058887616 -0.13549256 -0.061713036
0.09288112 0.12094629 -0.046508122 -0.14637989 -0.03664358 -0.024415188 0.14997515 -0.032796454
0.11792638 0.04931841 -0.07992501 0.029278776 0.06298713 0.014505158 -0.12285973 -0.03462847
-0.034082916 -0.124749124 0.010818709 -0.004290646 0.009120366 0.08892 -0.07460461 0.027776193
-0.013801144 -0.0901449 -0.09925124 0.12889224 -0.043738775 -0.12848519 0.06524259 -0.019013954
-0.028710572 -0.019693501 -0.044308204 -0.012778255 -0.002503228 -0.09874251 0.011301245 0.04696728
-0.050331257 -0.017174315 0.09313581 -0.11605821 -0.05622598 -0.037061166 -0.10255403 -0.017696407
0.053497754 -0.028110093 0.1353355 0.05004027 -0.03319522 0.049074087 -0.08159234 0.108276546
-0.0604456 0.014279454 0.013719699 0.053224176 0.07507084 -0.15452564 -0.015933368 -0.0037224067

lstm.bias_ih_l0 f4 [400]
00000000: 2118 30bd 0e13 883d b5fc bebd a83e d9bd
00000010: 66d0 7fbb a109 d4bd 2fbc 23bd 877d 9c3d
00000020: a38f 263d 7e60 65bd 40dd 5fbd 9823 0dbe
00000030: 494c 21bd fdf6 f73c fa21 1bbc 40fb 10bd
00000040: 9ba2 91bd 1b60 85bd 4096 91bd 1fac 893d
00000050: 3fde b93d 9dff d1bd ba78 e8bc 2a57 c33c
00000060: b8a7 6f3d 7b32 adbd 5985 643a d4a3 753d
00000070: 900c 903d d73e 12bd b6ac 49bd 5d51 093b
00000080: 7565 dd3c af4f 8bbd 1b6e 5f3c 3d2a c6bd
00000090: 9e4d 1a3c f431 743d 1d7b a7bd f7df b33d
000000a0: 55d7 7c3c c71e 843d bbf0 7b3d 45e0 b43d
000000b0: 3c29 33bd 437e 7ebd 72fa 8abd e2ca 0c3d
000000c0: 6faa d23c abdb 9a3d e9a4 92bd bb56 933d
000000d0: 9b42 07bd 3c40 9f3c b619 8f3d 0e3f 833d
000000e0: 998e 183c 2797 afbd 6599 90bd 4937 91bd
000000f0: 222c 95bd 7f2f 6dbd dcaf 6e3c e512 83bd
00000100: 8097 583d 6670 ffbd 8732 27bd 5690 fc3c
00000110: ea0e a13d 6eca 5a3d 6731 9dbd 9733 66bb
00000120: ba31 a73d 44c0 52bd 9a48 403d 0537 d03c
00000130: 0bbb 98bd 463e cbbc ad48 89bd 501e 72bd
00000140: 5463 a03d adc0 273c 09cb 423d e8dc 0c3d
00000150: e4c2 943b 6671 883c 18ee e236 6d3d 2fbd
00000160: 197b e9bd 6e8f 183d 6d25 a23d 63ac 133c
00000170: 3ef2 063d 3a8f 84bd c800 bfbd d5c0 d9bd
00000180: 787a d73d d646 8abd ae9c 87bd 9c6c d2bb
00000190: 2351 09be 47e4 cfbd 2545 2dbc 3dd1 903d
000001a0: ccba 6abd 5f8e 75bd def4 8b3c 3cf7 4c3d
000001b0: df01 a83d 0c83 ecbd 6f7a 45bd b6fd 57bd
000001c0: 7c04 b9bd a190 6b3c 69ef a4bd 71c2 d4bd
000001d0: 20fe 9dbd f6bf 16bd 1c2b 1fbd 8969 5fbd
000001e0: 4979 92bd 7d16 12bd a43a fbbc 4bc2 c8bd
000001f0: ff8b 5bbd 11ae dfbd 2c86 eabd 9d11 0ebe
00000200: 5c31 adbd 4636 6fbc f20a 663c ac73 8b3c
00000210: f09b d63c 13cf 96bd 32e3 2fbd 96a4 763c
00000220: 8612 75bc fef7 bbba e0a4 feba d5e1 a9bd
00000230: 745e bebd abf5 1e3c cb5e 1c3c a32b 9fbd
00000240: 7b89 1b3d baa4 ab3d c924 b23d 69c7 423c
00000250: 2504 80bd 6921 04bd 2289 bebd 731f 3b3d
00000260: eba4 323d 9228 583d 7ee6 d3bd f1f5 a63c
00000270: 8207 49bd ba1a 66bd 1db2 e5bd 19a0 253d
00000280: 2d87 c9bc 391a 943d af3d a3bd 7d66 153d
00000290: 9bea 32bc 60de bb3c 2949 733d 950b 01be
000002a0: d7fe ac3c 31e7 88bc 02b0 66bd 729f 75bb
000002b0: ca1c afbd 5909 22ba 15e8 b63c 9b14 4b39
000002c0: 31a5 a3bd 9484 923c 9051 3c3d ba09 5fba
000002d0: 373a 573d 440c 93bd 0fcd 2bbd 7330 033d
000002e0: f78e a0bd c0e2 8abd b5ea 9fbc 7136 dbba
000002f0: 2086 0bbd f287 78bd ad39 9bbc d958 e53c
00000300: 5135 41bc 7860 06bd 16f0 a9bd 2b23 493d
00000310: a299 da3d 2cff 853c f8ae d7bd 4627 b6bd
00000320: f72f 39bd 31f4 e23d 1005 00bd 2d84 38bd
00000330: 872c 8c3d 51dc a3bd 36fe 11bd 933e 9a3d
00000340: f498 f1bc d19e 9a3d 4c4d 0e3c f508 553d
00000350: 4ce1 e2bd 9d47 8ebc 40fa 92bd 0404 1c3d
00000360: a319 17bd 7521 4b3d a3a6 babd 6d15 073d
00000370: 7104 8abc 1ade 33bc e6b3 f73d 9f2b c3bd
00000380: a540 ccbd 3ea3 54bd ab0a c33c 0f31 893d
00000390: 7ca6 b8bb e0ae 91bc b8a0 9a3d c558 233d
000003a0: 3d0a 81bd 5988 373d aca4 8b3d c7ca 923d
000003b0: ee23 59bd be61 95bc 3f0d 2a3d 5592 c7bd
000003c0: b1f0 d8bd 9e38 843d 2269 233c e4c7 6ebd
000003d0: 11f5 403d 094c 7d3d dcf2 21bc 0eef 063d
000003e0: f2b6 0cbd 99cd 153d d791 65bd 6922 0bbc
000003f0: d61c 683d 30e6 d3bd 3732 ac3d 9b9d d7bc
-0.04299176 0.066442594 -0.09325544 -0.10607654 -0.0039034127 -0.10353399 -0.039974388 0.0764113
0.040664326 -0.056000225 -0.05465436 -0.13783109 -0.03937939 0.03026914 -0.00946855 -0.03539586
-0.07111093 -0.06512471 -0.07108736 0.067222826 0.09075593 -0.102538325 -0.02837788 0.023845274
0.05850956 -0.08456894 0.000871738 0.05997069 0.07033646 -0.03570446 -0.049236976 0.0020953037
0.027025918 -0.06802308 0.013637091 -0.09676025 0.009417919 0.05961795 -0.08177779 0.08782952
0.0154321985 0.06451183 0.061508875 0.088318385 -0.043740496 -0.06213213 -0.0678605 0.03437317
0.025716035 0.075614296 -0.0716036 0.07194277 -0.033022504 0.019439809 0.06987326 0.06408511
0.009311342 -0.08573752 -0.07060508 -0.07090623 -0.07283808 -0.057906624 0.014568295 -0.06400088
0.052878857 -0.1247261 -0.04081967 0.030830543 0.07864173 0.05341571 -0.076754384 -0.0035125965
0.081637815 -0.05145289 0.04694424 0.02541686 -0.074575506 -0.024809968 -0.06703315 -0.05911094
0.07831445 0.010238809 0.04755691 0.03439036 0.0045398343 0.016655635 6.7630426e-06 -0.04278319
-0.11400432 0.03724616 0.07917295 0.009013268 0.032945864 -0.06472631 -0.09326321 -0.10632483
0.10521406 -0.06751792 -0.06621681 -0.0064216387 -0.13409857 -0.10150962 -0.010575567 0.07071159
-0.05730705 -0.05995023 0.017084535 0.05004047 0.08203482 -0.11548433 -0.048212465 -0.052732192
-0.090340585 0.014377744 -0.08053476 -0.10388649 -0.07714486 -0.036804162 -0.03885947 -0.054544006
-0.071520396 -0.035665978 -0.03066761 -0.098026834 -0.053600308 -0.109218724 -0.114513725 -0.13873906
-0.0845668 -0.014600342 0.0140406955 0.01702293 0.026197404 -0.07363715 -0.04294128 0.015053889
-0.01495803 -0.0014340875 -0.0019427799 -0.08295027 -0.09295359 0.0097021265 0.009544085 -0.07771995
0.03797291 0.083810285 0.086984225 0.011888363 -0.062507905 -0.032258425 -0.093035 0.04568429
0.04361431 0.052773066 -0.10346697 0.020380946 -0.049079426 -0.056177832 -0.11215613 0.040435884
-0.02460059 0.07231564 -0.079707496 0.036474694 -0.010920192 0.022933185 0.059395943 -0.12602074
0.02111761 -0.016711803 -0.056320198 -0.003747907 -0.08550413 -0.00061812025 0.022327462 0.00019367265
-0.07990492 0.017885484 0.04597622 -0.0008508224 0.052545752 -0.07180074 -0.041943606 0.032028627
-0.078397684 -0.067815304 -0.019521097 -0.0016724599 -0.03406346 -0.060676523 -0.0189484 0.027996467
-0.011792497 -0.032806844 -0.08297746 0.049105804 0.106738344 0.016357027 -0.105314195 -0.088942096
-0.04521176 0.11081732 -0.031254828 -0.045047928 0.068444304 -0.080010064 -0.035642825 0.07531466
-0.029491879 0.07549823 0.008685421 0.052010495 -0.11078128 -0.017368132 -0.07176638 0.038089767
-0.036889683 0.049592454 -0.09113815 0.032979418 -0.016847821 -0.010978246 0.1209486 -0.095298044
-0.099732675 -0.051913492 0.023808798 0.0669881 -0.005635081 -0.017783582 0.07550186 0.03987958
-0.06300781 0.044807766 0.06818518 0.07167583 -0.05301278 -0.018235084 0.04151654 -0.097447075
-0.10592783 0.06456111 0.009973796 -0.0582961 0.047108714 0.06184009 -0.009884562 0.032942824
-0.034354158 0.036573026 -0.056047287 -0.008492091 0.056668125 -0.10346639 0.08408015 -0.02632027

lstm.bias_hh_l0 f4 [400]
00000000: c747 bdbd acd2 8cbd b109 b93d 0aab 9ebb
00000010: a91b 8a3c d9fb 7fbd 5629 efbd 6a93 073d
00000020: 4835 743c c1de 9f3d 639e eebc e2e1 2f3d
00000030: 32e1 053d 1a97 fdbc 5908 93bd 0a6a 77bd
00000040: c07f 4f3d de6c d5bd d29a 9d3d 8302 87bd
00000050: f77a 23bd 9d78 d9bd 66a7 a03d 3435 6fbd
00000060: f62b dbbd 125c dfbd 620b 86bd 7a60 733d
00000070: 8aaf 5c3d e10d 8fbc 488b 023c d6dd 3d3d
00000080: f27f a13d a757 26bd 590d 9b3d 2da8 42bd
00000090: 2ae0 69bd 3d40 85bd b794 e3bd ecd5 b23d
000000a0: 8f3f cebc f0ca 4cbb 79ad 45bd f32d 60bd
000000b0: a426 0e3b d00d 83bd 827c 3c3b 1806 a2bc
000000c0: bfb0 8b3d 13bc abbd cdd8 2c3c 8b4c 803d
000000d0: ff6f 5c3d 888b 50b9 6d6c cbbd da18 8a3c
000000e0: 9a6d 023d 898a 98bd 9186 8e3d 207b 8d3d
000000f0: 64b5 71bd a250 75bb 6e1a c53d f5ee f4bb
00000100: 8195 4dbd bea6 803c 6425 b33d f409 dd3c
00000110: b20b d33d 8983 943d 5776 89ba 72b2 10bd
00000120: 4b53 a7bd 5b5a b3bc 9ffd 0a3d edd6 0ebd
00000130: e5be 693c 0c94 6bbd 0f2d 12bd 0380 1c3d
00000140: 1dc2 9ebc eced 28bd 6917 38bd e71b 8ebd
00000150: e266 213d 303b bdbc 2e95 ddbc 0495 f7bd
00000160: c81c 2bbd ca0d 9dbd a680 c23d 6e3d c23d
00000170: 5e6a a43d 96d0 0abd 4aaf eabd b26b 923d
00000180: 5af2 cb3d 5fac 22bd 3ca9 03be e3f3 583c
00000190: 8440 c23c 5c12 aebd 4a2a 40bd a05c 633d
000001a0: ea23 95bd 6b7c 813d 1760 12bd 2778 03be
000001b0: 91ff 5ebd 7cb2 5dbc e9d1 323c 8445 2cbd
000001c0: 88bd 47bd b39a 5b3d 4062 f2bc bda5 49bd
000001d0: 79ef 6e3c 0d7f bbbd 06dc 753d 1b48 3d3d
000001e0: 0dfb 90bd f3b7 c6bc dd3d e0ba acad 4d3c
000001f0: 23c3 2cbd 281a 6dbd ccf3 233d d728 a0bd
00000200: 213d a5bd 11ca 97bd 1637 8d3d 9a70 95bd
00000210: e6c8 663d 6f12 20bd 0ce7 e13c 9ff7 95bd
00000220: 7441 623c d744 cfbd d353 923d 1641 a4bd
00000230: 9800 513d 6e9f bc3c 408c 24bc 1a6f 903d
00000240: 80d5 183d dc17 59bd d161 70bd cc18 1bbc
00000250: 82d5 b63d 02a0 c13c 224a e6bd 3c07 8fbc
00000260: a6b8 06bd ebdb a93c 09c1 c13c c6ec 90bd
00000270: 06eb 943d 626a 873d 3111 46bc 8ce0 00bd
00000280: 9a2f 293d ebbf 8f3d 762d 20bc 4503 2b3c
00000290: 8b88 a4bc 79b0 00be d92f 373d 04c1 9bbc
000002a0: 6cd8 f4bd 1194 debc 71cf c9bd 7437 ecbc
000002b0: 7521 b03d 2368 813d e0fd fdbd c17b 4b3d
000002c0: c3e0 adbc 41b2 61bd d7d5 e73c 2a31 b3bd
000002d0: a1f8 b2ba ff37 4ebd 1edd fbbb 7afd d83c
000002e0: b619 9dbd d283 3cbd 5226 9bbd 3e13 b43c
000002f0: f19f 0bbe 64f4 2e3d fb8b de3d 4983 efbd
00000300: a358 a6bd 94d9 bbbd 61a6 ccbd 531e cabc
00000310: 0321 49bd 5af0 883d 83cf afbd 41ae f5bd
00000320: 32e6 32bc 9774 dbbc 75a9 8dbd 1501 393c
00000330: 03a9 6bbc 09d5 e43c a65e 55bd 5707 82bc
00000340: 1bfb cb3d bee4 7c3d 2a07 8e3d 6b5a ce3c
00000350: 9e0a cebd 8d7a 1ebd 2b81 a03c add1 5a3c
00000360: e120 60bc 97bf 0cbd 2a0e 073d 1a4e 8fbd
00000370: 350d 7c3c 09cc bfbd 931c fc3d 89dd 00bc
00000380: 45b1 0b3d b345 df3c a408 4f3d a72d 293d
00000390: 91a0 193d ad22 44bc 86c0 33bd c783 72bd
000003a0: 11b6 083d 4e74 93bc b988 e83b 5b9a 403d
000003b0: 6d4b 2dbd 7cd7 a7bd 779d ce3c 08a0 c53d
000003c0: 3e38 aebd 509c 1c3d d957 87bc 1b15 b23d
000003d0: 8bfd 463c a2a4 a53c 4797 a0bc acb0 bc3d
000003e0: bc78 b93d a98b 19bd c762 783d 0e36 aebd
000003f0: 6966 2a3d e29a 62bd e0bd 89bc a834 b2bd
-0.09242206 -0.0687612 0.090350516 -0.004842167 0.016858893 -0.06249604 -0.11677806 0.03309957
0.014905281 0.07806159 -0.029128259 0.042940028 0.032685466 -0.03095584 -0.071793266 -0.06040386
0.05065894 -0.104211554 0.07695545 -0.06592276 -0.03991219 -0.10618708 0.07844429 -0.058400348
-0.10701744 -0.10906233 -0.0654514 0.05941818 0.053878345 -0.017462673 0.007967778 0.046354137
0.07885732 -0.040610936 0.07570905 -0.047523666 -0.057098545 -0.06506393 -0.111123495 0.087322086
-0.025176791 -0.003124889 -0.04826114 -0.05473132 0.0021690512 -0.06399119 0.0028760736 -0.019778296
0.06820821 -0.08385482 0.010549736 0.062645994 0.053817745 -0.00019888405 -0.0993279 0.016857553
0.031842805 -0.074482985 0.0695926 0.0690825 -0.05901088 -0.0037432094 0.09624182 -0.007474775
-0.050191406 0.015704509 0.08747366 0.026982285 0.10304965 0.07251651 -0.0010487539 -0.03532643
-0.08170184 -0.02189367 0.03393328 -0.034872938 0.014266704 -0.057514235 -0.035687502 0.03820802
-0.01937967 -0.041242525 -0.0449442 -0.06938916 0.039404757 -0.023099512 -0.027048673 -0.12088969
-0.041775495 -0.07668646 0.09497194 0.09484373 0.080281004 -0.03389033 -0.11459215 0.071494475
0.09958334 -0.039715167 -0.12857527 0.013241741 0.023712404 -0.084995955 -0.04691533 0.055508256
-0.07282241 0.06322559 -0.03573617 -0.12838803 -0.054442946 -0.0135313235 0.010914304 -0.042058483
-0.048764735 0.05361433 -0.029587865 -0.049230326 0.014583462 -0.091550924 0.060024284 0.046211343
-0.07079134 -0.024257636 -0.001710828 0.012553614 -0.042178284 -0.057886273 0.040027425 -0.078202896
-0.080683 -0.07411588 0.068952724 -0.07296868 0.056343935 -0.03908008 0.027575992 -0.073226206
0.013809551 -0.10120552 0.071448945 -0.08020227 0.051025957 0.02302524 -0.010043204 0.07052441
0.037312984 -0.05300127 -0.058687035 -0.009466361 0.08927442 0.023635868 -0.112446085 -0.017459504
-0.03289094 0.020734748 0.023651617 -0.07076411 0.0727139 0.06612088 -0.01208906 -0.031464145
0.041305162 0.07019027 -0.009776464 0.010437791 -0.02008464 -0.12567319 0.044723365 -0.019012935
-0.11955342 -0.027170213 -0.098540194 -0.028835036 0.086001314 0.06318691 -0.124019384 0.049678568
-0.021225339 -0.055101637 0.028300209 -0.08749612 -0.001365442 -0.05034637 -0.0076862713 0.026488055
-0.076709196 -0.04602415 -0.075756684 0.021981832 -0.13635232 0.042713538 0.10866543 -0.116949625
-0.08122375 -0.09172359 -0.09992672 -0.024672663 -0.049103748 0.066864684 -0.085845016 -0.11996127
-0.010919141 -0.026788993 -0.06917087 0.011291762 -0.014383557 0.027933614 -0.052092217 -0.01587264
0.09960004 0.061741583 0.0693496 0.025189599 -0.10060619 -0.038691092 0.019592842 0.013355655
-0.013679714 -0.0343624 0.032972492 -0.069973186 0.015384008 -0.093650885 0.123101376 -0.007865318
0.034104604 0.027254915 0.05054535 0.041303303 0.037506644 -0.011971158 -0.043884777 -0.059207704
0.033376757 -0.017999794 0.0070963767 0.047022205 -0.04230826 -0.08195397 0.02522157 0.09649664
-0.08506821 0.03823501 -0.016521381 0.08695432 0.01214541 0.020220105 -0.019603385 0.09213385
0.090562314 -0.037486706 0.060641076 -0.08506404 0.041601572 -0.05532349 -0.016814172 -0.0870145

lstm.weight_ih_l0_reverse f4 [400, 12]
00000000: 3c10 b43d e398 18bc e48c 673d 54c0 a5bd
00000010: 8c07 d93c d4b8 afbc 6072 cebc c85a da3a
00000020: d7dd b9bc 7072 bdbd d1cb 80bb 6ef0 c93c
00000030: 2a4e 64bd 46b5 cf3d 4c1b f8bc 953c 99bd
00000040: f8f1 f33d 92c1 ca3d 8acc 9c3d 2479 39bd
00000050: f901 a8bd f521 a03d d8bd b6bd b208 a73d
00000060: 7e91 75bd dcc2 0b3d ddec 2dbd 9525 8d3d
00000070: b7e0 703d 5715 febc 3f01 f43b ff7c 71bd
00000080: c9e4 693d bc62 cc3d 25a0 b4bd 07b4 76bd
00000090: 4d3c d0bc 1a3b 8ebd e1da e13c 8b16 a7bd
000000a0: 8521 baba 2a98 933c 3fb4 7ebd a2db 1bbe
000000b0: 077b adbd 6558 9abc 5618 32bd ed47 be3b
000000c0: 786e c5bd 7afb 09be b6cc 1abe 3f07 16be
000000d0: 333f 2fbd 1eff f53c 3695 16be a9f2 0dbd
000000e0: a0b8 1cbd 1b2b 2fbe 15be 9d3c 5614 0fbd
000000f0: e6db 75bd e2a0 b43d 976c 83bd 7d31 4e3d
00000100: 9aa8 f43a 5d70 72bb 53b4 07bb 95af c43d
00000110: a54c 27bd 5f65 823d 9d71 c2bd 8519 8bbd
00000120: 8c6e 60bd 19da 60bc 798a 0dbd 77ac cebd
00000130: ce3d 373d 8062 d33d aec4 813c 0931 563b
00000140: 57e5 52bc 3580 f3bd 2479 e9bd fc3a 0bbd
00000150: 70e6 ed3a c65a c73d 22c1 3d3d 9ca4 ba3d
00000160: 2ee2 fe3c 0ab1 443e d838 eb3d 3e31 a23d
00000170: 8ce0 133e 6b25 a83d 580a b9bc 392e 7f3d
00000180: af46 72bd 0514 73bd 7938 103c bd9a 1cbe
00000190: 1dc3 903c 08a5 80bd 9380 bdbd 8b88 2cbc
000001a0: c708 02bc 89c1 10be 128a 5cbd d951 f5bb
000001b0: 4db9 04be e986 98bc 0a71 44bc 3af0 15be
000001c0: a358 fdbb b891 22be f560 93bd b3a1 94bd
000001d0: f632 303c 7aed 84bd 294c 0fbc ddaa 60bd
000001e0: 8242 b2bc 37cc be3d 8b5c ac3c 9059 193d
000001f0: 0f4e b33c 8dbf 603c 53e3 a8bd 6adc 2abd
00000200: 2f14 26bc b5f1 1f3d 1d9f 97bd fb60 7e3c
00000210: 9111 763d 5bcf 033d 622b 623c 5b02 1a3d
00000220: 7eab 77bd d7e5 82bd 0c5a 37be 6c02 0fbc
00000230: 45c0 24be 3c51 1cbe c39a 3bbe 56cc 00bd
00000240: ed99 293d 7b7c 6c3d df65 9f3d 8d52 34bd
00000250: 8c7e e5bd 6543 8f3a 9029 debd 3b54 65bd
00000260: 22c7 24be 94dc a8bc 8246 ecbd 198d 3cbe
00000270: def7 af3d f42c b23c 3473 3cbd 2b4e 8039
00000280: c369 76bc b42f 983d 9bf2 a33d 76ff 053c
00000290: ffd4 523d 69d2 603b 133e 95bd d204 e63c
000002a0: 10d8 abbd dd09 593d 2e6d 41bc b92c aabd
000002b0: 18b7 893d 645e ef3c 6adf 59bd 7b5c 43bd
000002c0: d12f 6d3d 3a85 aebd d796 a8bd 0e14 96bd
000002d0: 8a99 cc3c b63b c9bc 2486 b43d 4994 b8bd
000002e0: c45c 23be a202 aabd ec20 17be c912 f1bc
000002f0: 38b3 83bd 0a5c 183c a79c 96bd 5d69 ecbd
00000300: a169 ccbd ccf4 d6bd 151a 21be e421 07be
00000310: 4a21 113a 235c e1bd cd61 62be e75d 33bd
00000320: 2d78 2ebe efaa 83bd 98b0 09be ea1a d9bd
00000330: cf61 08bd a3ec af3d dfda 21bd c7d9 b8bd
00000340: 3b71 053e 2573 79bd 4498 37bd 5128 4c3d
00000350: 05f1 d4bd d8c1 febb 2c3c 463d 5c58 90bd
00000360: b39f 1abd e62a 0bbd 6af1 c8bd 4e95 4abd
00000370: b975 183d fd53 aabd 346d 82bd 3462 f6bd
00000380: 2118 88bd 4a39 b1bd 48e2 ebbd e0a2 93bd
00000390: 07f0 373d 5172 373d 9410 e03d 468a 6ebd
000003a0: 2c29 9bbd e503 80bd cf9a 9abd c5c0 c7bd
000003b0: 9fb9 0b3d 49a3 243d 444a d3bd 388d c0bd
000003c0: eba1 573d 1a00 27bd 0232 1a3d c921 703c
000003d0: 8ee7 043e 43ae 5a3d 75b8 80bd 0d67 1b3d
000003e0: 4dbb 1fbd 7766 b3bd 2dc7 d23b fa1c ba3c
000003f0: 7224 883d 4b3a 86bd 596d 8cbb 6183 a9bc
0.08792159 -0.009313795 0.05653085 -0.08093324 0.026492856 -0.021450438 -0.025201023 0.0016659135
-0.02268879 -0.09250343 -0.003930547 0.024650779 -0.055738606 0.10141997 -0.030286454 -0.07482258
0.11911386 0.09900202 0.076562 -0.045281544 -0.08203501 0.07818977 -0.089229286 0.081559554
-0.059953205 0.03412138 -0.04246222 0.06891934 0.058808055 -0.031016035 0.0074464376 -0.058957096
0.057102952 0.099797696 -0.08819608 -0.06023028 -0.025419379 -0.069448665 0.02757019 -0.081585966
-0.0014200663 0.018016893 -0.062183615 -0.15220502 -0.08470731 -0.018840978 -0.04348024 0.005806914
-0.09640211 -0.13474837 -0.15117154 -0.14651202 -0.04278488 0.030028876 -0.14705357 -0.034655247
-0.03826201 -0.17106287 0.019255677 -0.034931503 -0.060024165 0.088197485 -0.06417196 0.050340164
0.001866597 -0.0036993243 -0.0020706847 0.09603802 -0.04084458 0.06366991 -0.09494326 -0.06791977
-0.054792926 -0.0137238735 -0.034555886 -0.10091489 0.044736676 0.10321522 0.015840854 0.0032683036
-0.012872062 -0.11889688 -0.11400059 -0.0339918 0.0018150341 0.097341105 0.046326764 0.09113428
0.03111371 0.1920816 0.114854515 0.079195485 0.14441127 0.08210262 -0.02258794 0.06229994
-0.05914944 -0.059345264 0.008802527 -0.15293403 0.017671162 -0.06281477 -0.09253039 -0.010530601
-0.007936663 -0.14136328 -0.05384261 -0.0074865636 -0.12961312 -0.018619018 -0.011989841 -0.1464242
-0.0077315136 -0.158759 -0.071962275 -0.07257404 0.0107543375 -0.064906076 -0.008746185 -0.054850448
-0.021760229 0.09316295 0.021040222 0.03743893 0.021887807 0.013717544 -0.08246484 -0.04171411
-0.010136648 0.03904887 -0.07403395 0.015526052 0.060075346 0.03218017 0.013804289 0.037599903
-0.060466282 -0.06391495 -0.17905444 -0.008728605 -0.1608897 -0.15265363 -0.18320756 -0.03144487
0.04140656 0.0577359 0.07783102 -0.04402404 -0.112057775 0.0010930119 -0.10847771 -0.05598853
-0.16091588 -0.020612992 -0.11536886 -0.184132 0.08592199 0.021749951 -0.046008304 0.00024472302
-0.015039864 0.07430974 0.08005258 0.008178582 0.05147266 0.0034305102 -0.0728723 0.02807847
-0.0839082 0.052987922 -0.011805816 -0.083093114 0.067243755 0.029219814 -0.05319158 -0.047695618
0.05790693 -0.08521505 -0.082318954 -0.07328044 0.024975557 -0.024564605 0.08814648 -0.09012658
-0.15953356 -0.083012834 -0.14758652 -0.029427903 -0.06430668 0.009299288 -0.07354098 -0.11543534
-0.099810846 -0.1049591 -0.15732606 -0.13196522 0.00055362715 -0.11003902 -0.2210762 -0.043790724
-0.17038031 -0.06429087 -0.13446271 -0.106008366 -0.033296403 0.08590057 -0.039515372 -0.09025913
0.13031475 -0.060900826 -0.044822946 0.049843136 -0.10397533 -0.007774573 0.048397228 -0.07048103
-0.037749957 -0.033976458 -0.09811671 -0.049458794 0.037221644 -0.08316801 -0.06368485 -0.120304495
-0.06645227 -0.08653505 -0.11517769 -0.072088 0.044906642 0.044786755 0.10940662 -0.058237337
-0.07576212 -0.06250743 -0.07549059 -0.09753565 0.03411257 0.040194783 -0.103168994 -0.09401935
0.05264465 -0.04077158 0.037645347 0.0146564925 0.12978956 0.053388845 -0.062851824 0.037940074
-0.038996983 -0.08759778 0.006432435 0.022718895 0.066475764 -0.06554087 -0.004285496 -0.02069253

lstm.weight_hh_l0_reverse f4 [400, 100]
00000000: 0a19 9f3d 97fa dfbd 1ba8 cd3c 1c61 2fbd
00000010: 5b56 103d d2b6 cd3d 88d0 933a 02ab 88bd
00000020: f9cc 45bd 0f7a 93bd 5acb d53c 14c2 94bd
00000030: b3cc ac3d 172a 7abd 73db ee3d b26e a53d
00000040: 2b49 07bd bb83 79bd 13e7 48bd a094 74bd
00000050: 1edb c93d 6759 06bd 0f3c 14bc 21a2 673d
00000060: 2d2c 863d c8e5 973b ce7f b8bc 3e09 4e3d
00000070: a7a7 6fbd 3426 b5bd 34da d3bc 75bb cf3d
00000080: 3156 193d 2314 37bd d8ec 77bd ecb7 ee3d
00000090: 6bf9 eabd 9db5 bf3d 7301 a53d a63b b2bc
000000a0: 4006 563d 0d59 3dbd 66f1 f03c 3b66 7cbd
000000b0: b64a aabd 88ee 9e3d d54b bbbd 702b e2bb
000000c0: c7cd 703d 9cfb 913b 82a5 a8bd 7e45 64bd
000000d0: 4ad4 b03d 13a8 a13d 6d70 fabd 0067 203b
000000e0: 5820 313c 5521 81bd ae49 a3bd 9110 63bd
000000f0: 8143 82bd 26f9 d739 4937 a4bd 778b 9dbd
00000100: ae67 3cbd a6c4 ae3d 6bcd a13d a231 38bc
00000110: 666b 1bbd db6e babd 22ca 263d 810f a63d
00000120: b984 713d 9883 a13d 0959 9a3c 6b8e 86bc
00000130: 0461 58bd 5099 033d d415 9e3c bfb7 26bd
00000140: f104 13bd dfee 87bd ec71 47bc 0b3d 7dbd
00000150: e458 83bd 2474 153d 5826 8bbd 5bce 2b3d
00000160: 179b ba3d 667a b53c 6b72 8c3d 9999 a4bd
00000170: 84ed 38bd fc3e bb3d 5149 793d fef2 fd3c
00000180: 966c 2839 ea8c 51bd d77f 9bbc 7fb7 863d
00000190: 08e0 283d 87e3 973d 131f 673d 0281 69bd
000001a0: 3aac d03d 0eb8 6ebc 0ea1 5c3d a183 d4bd
000001b0: 6cc3 c53d 9ae4 8cbd b5a2 9b3c 6820 febc
000001c0: c9c4 60bd 9dc5 553d 0a78 e43d fb07 f4bc
000001d0: 74df 1abd de1f e23c 8f57 d6bd 8284 00bd
000001e0: a2ea c43d 6b07 c03c 345b 913d 507e b1bd
000001f0: 224b b4bb a104 773d a924 89bd 1724 11be
00000200: 23e0 1bbb bd09 21bd cc9e fcbc 7efa aebd
00000210: 470d 66bd fcf0 97bc 4cb5 7fbd 1871 cc3d
00000220: 2d68 21bd f83c 78bd 7db6 b0bd 46ff 83bc
00000230: 7cab 14bd d5d1 a23d 6e2a b4bc 770b a7bd
00000240: 0e5e 813d a520 adba 7994 1f3d ab26 7cbd
00000250: a352 d5bc e985 a5bd 0bdd 943c ba91 aa3c
00000260: f4d3 b83d 657c f43d f96c 8bbd 0f8f 73bd
00000270: 278c 56bd d558 16bd ab36 0abe a5b7 ce3c
00000280: dc4c 57bd b767 7ebc a067 35bd 91ca 903d
00000290: 33dd 0d3d c21b 5f3d 0c83 0fbd 16fe 4d3d
000002a0: 8c8d 0cbd 60e3 87bd f39e 90ba a195 ccbc
000002b0: bdb2 3cbd 5504 ce3c 9c83 cf3d 472f fcbc
000002c0: 307c d23c 39eb 1bbd eae2 553d 48bc 0dbc
000002d0: 55e5 e3bc ecde 1e3d fc07 9fbd a7ef 17bd
000002e0: 6b36 1c3d 5db8 263c f691 653d 1c52 04bd
000002f0: 2397 a6bd f885 d5bd c933 f6bc 1009 52bd
00000300: ebbf c83d 7997 e63c e2d3 20bc 1600 98bd
00000310: dc29 413d c2aa 8a3d dbb3 a23d a154 b13d
00000320: 7521 44ba f63f d0bd 784e b2bd b0bb b53c
00000330: b914 923c c2e0 05bd 8533 813d f8e3 1abd
00000340: 902e 81bd fea1 8a3d 7a7b 35bd e4c5 b43c
00000350: b286 2b3c 9c2e b13d aa73 8ebd 749c bfbd
00000360: feec 513d d44b bd3d 9f8d 0e3c 3558 803d
00000370: 0f89 ec3d 302d 68bd b518 87bd 2b7a d43c
00000380: a2c4 ec3d a796 453d a60d 7abc c8ee ecbd
00000390: b819 53bd 4229 873c 75bd adbd e500 913d
000003a0: 338a bd3c 63de 543d 601b 0bbd e8c1 c4bd
000003b0: 906b 54bd adb6 363d 4fdc b5bd f1b1 2bbd
000003c0: f6d8 60bd 1cba 66bd 6068 bd3d 4b03 82bc
000003d0: 78ec 413d 4943 373d a2cf 64bc 9cec 03b9
000003e0: b5f4 c33d bac5 a73c e8c8 673d b336 263c
000003f0: e4d6 8ebd 105b 4cbd 3812 c9bb 53b6 52bc
0.07768448 -0.10936468 0.025104573 -0.04281722 0.035238605 0.10044636 0.0011277357 -0.06673242
-0.04829118 -0.07201015 0.026097942 -0.0726358 0.08437481 -0.061075296 0.1166295 0.08077754
-0.033028763 -0.060916644 -0.049048495 -0.059712052 0.098562464 -0.032800104 -0.009047522 0.056551103
0.065513946 0.0046355464 -0.02252188 0.050301783 -0.058509495 -0.08845177 -0.025860883 0.101431765
0.037435714 -0.04469694 -0.060528606 0.11656174 -0.11473354 0.09360812 0.08056917 -0.021756958
0.052252054 -0.046227504 0.029411983 -0.061620932 -0.08315031 0.0776034 -0.09145323 -0.006902151
0.058789995 0.004455043 -0.08234693 -0.055730335 0.08634241 0.07893386 -0.12228475 0.0024475455
0.010810934 -0.06305186 -0.07973038 -0.05543572 -0.063605316 0.00041193626 -0.08018357 -0.076926164
-0.045997314 0.085336015 0.079005085 -0.011242302 -0.03794422 -0.09103175 0.040720113 0.08108426
0.058964465 0.07886428 0.018841283 -0.016425332 -0.052826896 0.032128632 0.019297518 -0.040702578
-0.035893384 -0.06637358 -0.012173157 -0.061825793 -0.06413439 0.036487713 -0.06794423 0.041944843
0.09111612 0.02215309 0.06857761 -0.08037109 -0.045148388 0.09142873 0.060860936 0.030999657
0.0001606218 -0.051159777 -0.018981857 0.06577968 0.041229278 0.07416444 0.05642612 -0.057007797
0.101890996 -0.014570249 0.05386453 -0.10376669 0.096564144 -0.0687954 0.018998483 -0.031021312
-0.05487517 0.05219041 0.11155708 -0.029788962 -0.037810758 0.027603086 -0.10465919 -0.03137637
0.09615065 0.023441037 0.07097474 -0.0866667 -0.0055021206 0.06030715 -0.066964455 -0.14173923
-0.002378472 -0.039315928 -0.030837439 -0.08543871 -0.056165006 -0.018547527 -0.062428758 0.099825084
-0.03940599 -0.06060502 -0.08628557 -0.016112935 -0.036296353 0.079501785 -0.021992888 -0.081564836
0.06316768 -0.0013208581 0.038959954 -0.061560314 -0.02604038 -0.08082182 0.018171808 0.020821441
0.09024802 0.11937789 -0.06807894 -0.059462603 -0.052379753 -0.03670581 -0.13497417 0.025234053
-0.052563533 -0.015527657 -0.044288278 0.070698865 0.03463478 0.05446983 -0.035037085 0.050291143
-0.034314677 -0.06635165 -0.0011033699 -0.024973692 -0.046068896 0.02514855 0.10132524 -0.030784262
0.025693983 -0.038066123 0.052218355 -0.008650847 -0.027819315 0.038786814 -0.07765195 -0.037093785
0.038137835 0.010175792 0.056047402 -0.032304868 -0.08134296 -0.10425943 -0.03005399 -0.051278174
0.098022304 0.0281484 -0.009816142 -0.074218914 0.04715906 0.06770851 0.07944461 0.0865872
-0.0007481792 -0.101684496 -0.08706373 0.022184223 0.017832147 -0.03268505 0.06308655 -0.037815064
-0.06307709 0.06769179 -0.04430721 0.022067018 0.010469126 0.08651468 -0.06955655 -0.09356013
0.051251404 0.09242979 0.008700757 0.06266824 0.11549579 -0.05668372 -0.06596509 0.02593716
0.11560942 0.048239376 -0.015262043 -0.115689814 -0.0515382 0.016499165 -0.08483402 0.07080249
0.023137188 0.051969897 -0.033961654 -0.09607297 -0.051860392 0.044607807 -0.08879911 -0.041917745
-0.05489441 -0.05632983 0.092484236 -0.01587071 0.047344655 0.044741903 -0.013965519 -0.00012581277
0.095681585 0.020480026 0.056588084 0.010144877 -0.06974581 -0.04989153 -0.006136205 -0.012860852

lstm.bias_ih_l0_reverse f4 [400]
00000000: 061c 9bbd 8aee 533d 5bf4 9cbd 854c c73d
00000010: ab58 6f3d 35b3 783d cd96 5cbd f234 313c
00000020: bfab a8bd d8db f4bc 26e6 ac3d 59a8 b5bc
00000030: 9880 b23c 7176 98bd 9243 69bd e57c c03d
00000040: 6927 fbbd 81bc 8cbc 339f 89bd 4c89 50bd
00000050: f877 76bd 8e08 c5bc 1851 503c 4c44 c3bd
00000060: bc21 afbd 7bab 4d3d 34f2 f7bc e12a 2ebd
00000070: 9ae1 bdbd 00fb 453d fe56 553d 1c97 0bbe
00000080: 0581 343d fa74 9d3d 1ffb fcbc b8d1 9e3d
00000090: d89b febd 5fca 1dbc 9a06 8a3d 04c6 bcbc
000000a0: e645 9bbd 9d18 bfbb 0a50 c3bc a760 253c
000000b0: 189d 69bd e479 913d 5853 8bbd cd98 e7bc
000000c0: 4dd3 0cbd 1e95 ac3d 22e7 9ebd 18d3 3f3d
000000d0: e716 36bd 6371 bdbd bd34 093d 92cb 03bd
000000e0: abd5 4fbd e55b 3d3d 5083 ec3b 00bb 483c
000000f0: 1750 18bd d1ce bcbb 365b fcbc 1f0e 9abd
00000100: 84de 52bd 8b29 353d 6893 c7bd b199 04be
00000110: e5ba 71bd 2547 e1bd ab45 1fbd 1c1f 72bd
00000120: c05b 0f3d 41a3 a4bd 9e16 0fbd 68da b6bb
00000130: c6e8 bd3c decb 463c 1d08 d8bd e20e a2bd
00000140: 31ba d13c 87e0 92bd e5a9 53bd 2ec1 0cbe
00000150: ec4d 90bd 4f62 403d 05f1 97bc f360 c03d
00000160: 33ff 13bd 45dc 663d 8dc7 b83c 9cf6 b43d
00000170: a6c6 d5bc 7c82 dcbd 31d1 273d 052c 4a3d
00000180: 5692 4d3d 4aa9 89bd e06e b2bd 9bad 1a3d
00000190: c705 b0bd 084a 7b3d 37cc 09bd 5600 183e
000001a0: 3b29 a53d 8fe1 b8bd fc46 4e3d fc6e 8b3c
000001b0: 60a4 a8bd 97b7 4a3d e20c c23d ee04 0a3d
000001c0: 987f 303e 962d 0dbd 9807 c1bd d874 a73d
000001d0: 0531 113d e5eb 783c f255 3dba 9f1c 2c3d
000001e0: 64b6 113d 181f 0bbd a93f c4bd 7896 58bd
000001f0: 8271 383c 2b20 b03c fe67 18bd d9db 50bd
00000200: 2a8a 17bc 0e16 0abe 0416 ae3d 40ad 91bd
00000210: a198 a03d cad6 d13d 29dc a73b d160 d03d
00000220: 4b7d c3bb fad5 68bd 5341 453d c4ab 9bbd
00000230: 8e97 a73d af1c 26bd 68c2 98bd fa7c c93d
00000240: 4641 d3bc 526e 4cbd d45a 8c3b 508b b9bd
00000250: e150 b13d d006 f23c bc63 e6bc 3ce9 0e3c
00000260: e797 0d3d d38c 9ebd 425d fbbc 1670 97bc
00000270: 0fdb aabd 4cca 753d 7ee3 c0bd 6774 eb3c
00000280: 73b9 b63d bd59 19bd d3ef 333b 87b0 a43d
00000290: ec62 f8bc fdf3 ddbc e2a9 12bd c963 1e3d
000002a0: 2fb9 91bd d4f4 a2bb 2647 883d 53bf ba3c
000002b0: 00dc e3bd 98be a73d e8e3 883d 4fa6 0e3d
000002c0: 6f00 e43d 0aa7 42bb 876d 723d 5bd2 923d
000002d0: 2cc6 893d 927c e4bb a282 773b daf7 85bd
000002e0: b36f b33d 4979 ffbd 0314 5abd 7c03 49bd
000002f0: 4084 633c 4bd5 1a3d 4d43 d2bd bef2 283d
00000300: e270 acbc ec86 bfbd 5086 a6bd 1f06 8dbc
00000310: f944 a73d a4c6 7b3c e99e 43bc bd6d 5cbc
00000320: 5da1 28bd 673d 1fba c38a f1bc 1f27 d03d
00000330: 1e6e 603d 4934 c5bc 4598 8e3c 9b29 e1bc
00000340: 2746 70bd 1396 a43c 500a c93d e777 08bd
00000350: 78e8 513d 2366 a13d 2014 8b3d aff3 b53b
00000360: fd5c df39 eef7 a83d b90c 923d 4da1 8b3d
00000370: 8382 ae3d e283 413d d6c9 6d3d 5a77 81bd
00000380: fee8 7a3b 1c74 a63d ca0d 203c afeb 50bb
00000390: 826e 69bd bfbd e43b e2fd ae3b dfe2 bb3d
000003a0: 1254 603c fbe5 853d bd33 c93a 81d7 f53c
000003b0: 8bed ab3d 2f40 cc3d bcf2 b03d 691c 44bc
000003c0: 8140 c1bd a925 a73d 4a3c 8c3c 5121 f43d
000003d0: e91d 0b3d 1042 d7bd 9840 a33d 8969 d6bd
000003e0: 2841 9c3d 0573 4a3d 4a98 963d ea2d 6f3d
000003f0: b4e6 683c e0eb 053d 5612 ca3d 0c23 103a
-0.075737044 0.05174116 -0.076637946 0.09731392 0.05843417 0.06071778 -0.053854752 0.010815846
-0.08235883 -0.029889986 0.08442335 -0.022175001 0.021789834 -0.07444466 -0.056949206 0.09398822
-0.12263376 -0.01717973 -0.06719818 -0.050912187 -0.060173005 -0.02405193 0.012714647 -0.09534511
-0.08551356 0.050212365 -0.030266859 -0.04252136 -0.09271546 0.048335075 0.052084915 -0.13631862
0.044068355 0.07688327 -0.030881463 0.077548444 -0.124320686 -0.009630769 0.067395404 -0.02304364
-0.075816914 -0.0058317916 -0.023841877 0.0100938445 -0.057034582 0.07103327 -0.06803006 -0.028271103
-0.0343812 0.08426879 -0.07758929 0.046832174 -0.044455435 -0.092501424 0.03349756 -0.03217656
-0.05074088 0.046230216 0.007217802 0.0122516155 -0.037185755 -0.005761959 -0.030805212 -0.07522225
-0.05148174 0.04422907 -0.097449124 -0.12949254 -0.059016127 -0.10999898 -0.0388848 -0.0591117
0.03499961 -0.08038951 -0.03493368 -0.0055802353 0.023182284 0.012133567 -0.105484225 -0.07912995
0.025601478 -0.071717314 -0.051675696 -0.13745567 -0.070461124 0.046968754 -0.018547544 0.093934916
-0.03613205 0.05636241 0.02255609 0.088360995 -0.0260957 -0.107670754 0.040970985 0.049358387
0.050188385 -0.067217425 -0.08712554 0.03776322 -0.08594852 0.0613499 -0.03364202 0.14843878
0.08064505 -0.09027397 0.050360665 0.017020695 -0.08234477 0.04949149 0.094751135 0.033696108
0.17236173 -0.034467302 -0.094252765 0.08176583 0.03544714 0.01519296 -0.00072225847 0.042019483
0.035574332 -0.0339652 -0.09582455 -0.052877873 0.011257531 0.021499714 -0.03720855 -0.050990913
-0.0092492495 -0.13484976 0.08500293 -0.07113123 0.07841612 0.10246046 0.0051226807 0.10174716
-0.005965864 -0.05684469 0.048158 -0.07601121 0.08183204 -0.0405547 -0.07458955 0.098382905
-0.02578796 -0.049909897 0.0042832885 -0.09059775 0.086580046 0.029544264 -0.028123729 0.0087226
0.034568693 -0.07741704 -0.030684117 -0.018486064 -0.08342563 0.06000738 -0.09418391 0.028742028
0.089220904 -0.037439097 0.0027456179 0.080414824 -0.030320607 -0.027093882 -0.035806544 0.03866938
-0.07115399 -0.0049730334 0.066541955 0.022796309 -0.11125946 0.0819065 0.06684095 0.034826573
0.11132895 -0.0029701614 0.059186485 0.07169028 0.067272514 -0.0069728578 0.0037767072 -0.065414146
0.08761539 -0.12474305 -0.05324174 -0.04907559 0.013886511 0.03780107 -0.10266743 0.041247122
-0.02104992 -0.09351906 -0.08131087 -0.017214833 0.08167452 0.015367184 -0.011939743 -0.013453898
-0.041169513 -0.00060745183 -0.029485112 0.10163712 0.054792516 -0.024072783 0.017406592 -0.02748566
-0.058660652 0.020091092 0.0981642 -0.033317473 0.05124709 0.07880809 0.06790948 0.005552731
0.00042603156 0.08250414 0.07131333 0.06817875 0.08520987 0.047244914 0.058053814 -0.06321593
0.0038285847 0.08127615 0.009768913 -0.003187876 -0.056990154 0.0069806273 0.005340324 0.091741316
0.013691919 0.06538006 0.0015350502 0.030009987 0.08394917 0.099731795 0.08640048 -0.011969664
-0.09436131 0.0816148 0.017118592 0.11920417 0.03396407 -0.10510647 0.07971305 -0.10469348
0.07629615 0.049426097 0.073532656 0.058393396 0.01421516 0.03269565 0.098667786 0.00054983865
